cricket_biomor.pth (torch, 63202 bytes, 12 tensors)

router_rnn.weight_ih f4 [192, 6]
000000 92 92 f1 b9 00 00 00 00 19 e5 88 b9 55 7e 3a 3a
       -0.00046076305 0.0 -0.00026110632 0.0007114162
000010 13 82 fe 37 a8 00 85 bb 28 d1 23 b8 00 00 00 00
       3.033973e-05 -0.004058916 -3.905702e-05 0.0
000020 47 c9 ec bb 11 d8 55 bc 83 26 78 bc a4 0d 50 bc
       -0.0072261426 -0.0130520025 -0.015145901 -0.012698565
000030 7b b0 19 3e 00 00 00 00 74 ef 95 3d 8a d1 dc 3d
       0.15008728 0.0 0.07321063 0.10782154
000040 8b c9 41 3d b3 6f 5d 3d 8c fb 0b bd 00 00 00 00
       0.047311347 0.054061603 -0.03417544 0.0
000050 f8 eb 10 3e 15 6a 40 3d a1 ca 8d 3d f0 c1 0a 3e
       0.14152515 0.046976168 0.06923414 0.13550544
000060 8f 83 53 ba 00 00 00 00 d9 2d 0a bd af 06 13 bd
       -0.0008068615 0.0 -0.03373513 -0.035895046
000070 69 c7 28 bd ef e0 44 ba 61 7f 36 ba 00 00 00 00
       -0.041205797 -0.00075103244 -0.000696173 0.0
000080 01 20 6c bd de 20 67 bd dd 3b a6 bd b1 84 f9 3c
       -0.05764771 -0.05642783 -0.08116887 0.03045878
000090 a8 f6 94 3d 00 00 00 00 c4 c1 ea 3d 11 a4 c0 bd
       0.072736084 0.0 0.11462739 -0.09406293
0000a0 09 12 15 be ff 10 e8 3c 72 ce 43 ba 00 00 00 00
       -0.14557661 0.028328417 -0.00074694224 0.0
0000b0 78 97 9f bc 0e e7 98 bc 2e 48 d7 bc 08 3c f5 bb
       -0.019481406 -0.018664863 -0.026279535 -0.007483963
0000c0 17 9c c8 3d 00 00 00 00 96 71 9b 3d ce 3a 48 3d
       0.09795397 0.0 0.07590024 0.048884206
0000d0 5d 7e 52 3d 83 df 56 3e ce f7 53 3a 00 00 00 00
       0.05139004 0.209837 0.0008085937 0.0
0000e0 a0 48 a4 3c bf 0c 2d 3b 0f 5b 9f bb 90 2b 5c 3b
       0.020054162 0.0026405302 -0.00486315 0.0033595301
0000f0 17 00 ae b9 00 00 00 00 c6 e9 2a bb 4b b2 ea bb
       -0.00033187933 0.0 -0.0026079281 -0.0071623675
000100 f3 b4 61 bc f0 2a 20 3c 0b de 2c 3d 00 00 00 00
       -0.013776052 0.009775862 0.042203944 0.0
000110 8d 11 d9 3c f0 72 59 3d bb 9b 8d 3c 2b eb a7 3d
       0.026497627 0.05308813 0.017286172 0.081991516
000120 d6 11 1d ba 00 00 00 00 32 d7 27 3d ed 8a ab 3d
       -0.00059917325 0.0 0.04097671 0.08376107
000130 5f 60 c2 3d 59 c8 94 3d 68 83 58 b9 00 00 00 00
       0.094910376 0.07264776 -0.00020648318 0.0
000140 48 76 4c 3d 23 ec 89 3d 2f 34 9b 3d b2 84 60 3d
       0.04991749 0.06734493 0.075783126 0.054814048
000150 d0 aa 90 bd 00 00 00 00 88 67 bc bc 39 4b 08 bc
       -0.0706383 0.0 -0.022998586 -0.008318716
000160 a7 a0 88 3c 02 28 2d 3e 64 0e 15 b9 00 00 00 00
       0.016678168 0.16909793 -0.00014215108 0.0
000170 23 5b 7e bc a1 50 9f bc 14 7e 87 bc 51 61 83 bc
       -0.015524658 -0.019447627 -0.01653961 -0.016037615
000180 14 2a 8a 3a 00 00 00 00 e6 7d 41 3d 42 d2 b7 3d
       0.0010541105 0.0 0.047239207 0.0897565
000190 f9 b7 bc 3d 1b 81 a8 3d be 2b 11 3c 00 00 00 00
       0.092147775 0.0822775 0.008860527 0.0
0001a0 dd 44 85 3d d4 43 18 bd ed 4e 8d bd a9 a6 06 3d
       0.06507275 -0.03717406 -0.068998195 0.032873783
0001b0 bc 9d ed 3a 00 00 00 00 78 cc 31 3d b3 ff e4 bc
       0.0018128674 0.0 0.043407887 -0.027953958
0001c0 09 82 77 bd 76 a5 26 3d ac c2 2d b9 00 00 00 00
       -0.060426746 0.04068514 -0.00016571087 0.0
0001d0 80 bf 9b bc 4a c8 d6 bc e5 1c bf bc d2 56 dc bc
       -0.019012213 -0.026218552 -0.023329208 -0.026896868
0001e0 ea ba 23 3e 00 00 00 00 43 2b 2a 3e b5 e1 a7 bd
       0.15989271 0.0 0.16618066 -0.08197347
0001f0 24 b6 d7 bd 4d ef ac bc 95 27 14 bb 00 00 00 00
       -0.105327874 -0.021110201 -0.00226066 0.0
000200 29 34 3f bc 51 06 22 bc 2a 37 3e bc 59 a5 79 bb
       -0.011670151 -0.009889201 -0.011609832 -0.003809294
000210 bd 77 91 ba 00 00 00 00 bc 06 29 bc 63 17 9a bc
       -0.0011098307 0.0 -0.010316547 -0.01880998
000220 93 41 c3 bc 15 8e 91 bb 3e 02 8c ba 00 00 00 00
       -0.02383498 -0.0044419863 -0.001068182 0.0
000230 0e 41 1b bd 6e 7d 52 bd 75 5e 70 bd e2 29 9f 3a
       -0.037903838 -0.05138915 -0.05868383 0.0012143219
000240 15 80 b2 3a 00 00 00 00 19 ac dc 3c f5 06 66 3b
       0.0013618494 0.0 0.026937531 0.0035099362
000250 ea 1f 8b bc 55 d8 c2 3c 02 3e a9 3d 00 00 00 00
       -0.016982991 0.023784796 0.0826378 0.0
000260 a2 20 7b 3d a5 33 02 be a1 de 22 be 93 ff d2 3c
       0.061310418 -0.12715013 -0.15905239 0.025756633
000270 93 73 20 3e 00 00 00 00 b4 4a e4 3d b7 89 09 bd
       0.15669088 0.0 0.11147061 -0.0335786
000280 13 32 bf bd d8 c1 9a 3c 9d 16 66 3d 00 00 00 00
       -0.09335723 0.01889126 0.05617391 0.0
000290 45 c1 a0 3d 23 52 fc bc ba 0e 7e bd 3f 95 0e 3e
       0.07849363 -0.030800885 -0.062025763 0.1392412
0002a0 2f 1e a6 b9 00 00 00 00 ff c9 24 bd c8 49 4c bd
       -0.00031684476 0.0 -0.0402317 -0.04987505
0002b0 b3 3e 9b bd 26 b5 e8 ba 94 d3 39 b7 00 00 00 00
       -0.07580318 -0.0017754182 -1.1076121e-05 0.0
0002c0 7b ab 2a bd 17 68 5f bd 21 e4 a6 bd 5f 81 34 3c
       -0.041667443 -0.054542627 -0.08148981 0.011017173
0002d0 80 d7 d5 3d 00 00 00 00 20 6d ce 3b 39 9d d1 3d
       0.10441494 0.0 0.00629963 0.10235066
0002e0 bc d8 d0 3d 90 19 30 3e 2b a3 24 3e 00 00 00 00
       0.10197589 0.17197251 0.16077869 0.0
0002f0 e1 05 0a bc 88 fa 0f 3e b6 e4 de 3d 92 31 5c 3e
       -0.008424253 0.14060414 0.10883467 0.21503285
000300 3f c0 f1 ba 00 00 00 00 b4 50 99 bc 91 1f 95 bc
       -0.0018444135 0.0 -0.01871524 -0.018203529
000310 b5 ae 99 bc d2 fc 77 bc 48 ce 8f 39 00 00 00 00
       -0.018760065 -0.015135961 0.00027428777 0.0
000320 23 40 22 3c 9c af fb ba 35 01 12 ba 0d b7 0a bc
       0.009902987 -0.0019202116 -0.0005569638 -0.008466494
000330 26 21 0e ba 00 00 00 00 c7 ac 87 3c 17 95 4f 3d
       -0.00054218096 0.0 0.016561879 0.050679293
000340 b3 f9 85 3d 1a 16 e5 3c dc b4 94 3d 00 00 00 00
       0.06541767 0.02796464 0.07261059 0.0
000350 60 e5 20 3e 51 fd b9 bd 7a dd 09 be 87 ff 2c 3d
       0.157125 -0.090815194 -0.13463393 0.042235877
000360 fc 5b 64 ba 00 00 00 00 f7 71 f6 bb 19 02 59 3c
       -0.00087112165 0.0 -0.00752091 0.013245129
000370 37 a3 d7 3c 4c 8e e8 3b 37 3f 07 b9 00 00 00 00
       0.026322944 0.0070970412 -0.00012898153 0.0
000380 bf 02 c0 bb 8f 1e 92 bc 0c e6 ad bc 4b 4f 6f bc
       -0.0058597024 -0.017836837 -0.021227859 -0.014606307
000390 cf 89 8f 3d 00 00 00 00 17 69 ee 3d 1b 7a 93 bd
       0.07008707 0.0 0.11641138 -0.07201024
0003a0 62 21 e9 bd 97 9c 9f 3d 3a 65 2b 3e 00 00 00 00
       -0.113833204 0.07793539 0.16737834 0.0
0003b0 bc 61 3d 3d bb e9 93 bd 07 fe c1 bd 3b 43 e0 bc
       0.046235785 -0.07222315 -0.0947228 -0.027375808
0003c0 ed 14 52 3e 00 00 00 00 d1 69 12 3d c3 c1 4c 3d
       0.20515795 0.0 0.035745446 0.049989473
0003d0 7d ec 1d 3c a6 f8 d2 3d 0b 62 54 b9 00 00 00 00
       0.009638903 0.10301332 -0.0002025442 0.0
0003e0 02 43 16 bc 95 b9 14 bc 30 b5 cb bb a6 cb bd bb
       -0.009171249 -0.009077449 -0.0062166676 -0.005792099
0003f0 d4 f2 38 3e 00 00 00 00 eb 9d 88 3d 5b 76 98 bc
       0.18061382 0.0 0.066707455 -0.018611124

router_rnn.weight_hh f4 [192, 64]
000000 6e 20 2a bd 5f 70 29 3c b3 1b de 3d b0 76 1f 3d
       -0.041534834 0.010341733 0.10845127 0.03893155
000010 61 af be bd 19 8a 64 bc 8a 87 e1 bd 4b a2 f9 bd
       -0.093107946 -0.013948941 -0.1101218 -0.12189158
000020 9d 16 5a 3c 86 26 ee bd 09 86 b2 bb 5c 76 c8 3d
       0.0133110555 -0.116284415 -0.005448107 0.097882
000030 1c 1d 24 bd db 2d 73 bd 7b 18 a5 3b 3e be d2 bb
       -0.040066823 -0.059369903 0.0050383187 -0.00643137
000040 b3 4b b9 bc d3 2c c2 bd 2d 4d 4b 3d 96 09 6b bc
       -0.022619104 -0.09481206 0.049634147 -0.014345547
000050 4d 73 3e b9 79 45 f4 3d 4f a6 c6 3d 21 c7 dd 3d
       -0.00018162765 0.11927313 0.096996896 0.108289964
000060 b8 ca c3 ba 7f 9c c4 3d 59 78 d6 3c 71 7e 15 3d
       -0.0014937734 0.09600162 0.026180433 0.036497537
000070 60 4a 9c 3c 33 fd 0f 3d b7 df fc 3c 8a 69 e9 bd
       0.019078434 0.03515358 0.030868394 -0.11397083
000080 69 ef 3e 3d 26 b9 32 3c c6 38 6d 3d 3c c7 a3 ba
       0.046615038 0.010908401 0.05791547 -0.001249529
000090 59 e5 a7 3d 21 c5 fd bd 11 0b d9 3d b3 8e c3 bd
       0.081980415 -0.12391115 0.10597814 -0.09548702
0000a0 a6 7e ec bd 5a 1e d0 bd 9b 56 ef 3b 69 92 69 bc
       -0.11547594 -0.10162039 0.0073040253 -0.014256098
0000b0 70 4d 63 3d 54 b6 e8 bd 83 fd 6a bd af 41 ca 3d
       0.055493772 -0.11362901 -0.057370674 0.098758094
0000c0 9b 3a a0 bc 54 00 f5 3c 7c 6e 67 bd 42 1c d6 3c
       -0.019559195 0.029907383 -0.05650185 0.026136521
0000d0 23 dc ed bd 06 ce b9 3d e7 f1 88 3d d3 06 69 bd
       -0.11614253 0.09072499 0.06686764 -0.056891274
0000e0 22 6d e9 3d f2 5c f5 3d d6 43 92 3d 07 99 ce 3d
       0.113977686 0.119806185 0.07141845 0.100877814
0000f0 9e 26 06 bd 8e 07 2c 3d 55 db db bd 0e e5 e3 3d
       -0.032751672 0.041999392 -0.10735194 0.11127673
000100 e6 1e 6c 3b 6c ed 9f bd eb 54 d0 bd 69 ec ab bc
       0.003602916 -0.078089565 -0.10172447 -0.020986753
000110 54 b9 11 bd d8 fb 05 be 14 42 ba bd ca da 96 bd
       -0.035577133 -0.13084352 -0.09094635 -0.073659495
000120 7a 1f 99 3d 32 86 b8 bd 9d c7 c0 bc fb 80 94 3d
       0.07476707 -0.09009971 -0.023532683 0.072511636
000130 bc fa 62 bd 9c d6 0b be 1d 4e 66 bd fd f3 9c bc
       -0.0554149 -0.13656086 -0.05622684 -0.019159311
000140 e6 48 f1 3c c6 1b bb 3d 74 97 18 bd a0 83 4e 3d
       0.029453706 0.09136157 -0.037253812 0.050418496
000150 1f d1 b6 bb c8 2b d8 3d 93 ab 90 bd 8d 74 c0 3d
       -0.0055791284 0.105552256 -0.07063975 0.0939723
000160 65 8e 51 bd 98 88 4c 3d 66 84 16 bc 29 07 34 3d
       -0.05116119 0.049934953 -0.00918684 0.04395214
000170 ff 40 57 bd a5 4a 81 bc 3d 26 9b bd 84 67 04 be
       -0.05255222 -0.015782664 -0.07575653 -0.12930113
000180 34 6a 0c be 3f e3 86 bc a5 fc b3 bd f3 83 b6 bc
       -0.13712388 -0.016465781 -0.087884225 -0.022279715
000190 9a a4 7f 3d d4 b9 f6 bb a8 8c ac bc 42 71 40 bd
       0.062412836 -0.0075294767 -0.021063164 -0.04698301
0001a0 63 73 14 3d 9f 8c 28 bd 8a 2a 47 3d 02 0d d7 bd
       0.036242854 -0.04114973 0.048624553 -0.10500528
0001b0 a0 8b 5f bd 31 03 92 bd b4 57 df bd 22 d9 7b 3c
       -0.054576516 -0.07129515 -0.109054 0.015371593
0001c0 1a ad d7 bd 4e 91 01 be 38 43 ff bd d3 a1 96 bc
       -0.105310634 -0.12653086 -0.12463993 -0.01838771
0001d0 06 b7 ce bd dc 9d cd bd 02 a2 51 3d 47 74 09 be
       -0.10093503 -0.10039875 0.051179893 -0.13423263
0001e0 55 81 46 3d cd a0 58 bd 27 b9 ef bd 0a 09 8d 3b
       0.048463184 -0.052887727 -0.11705237 0.004304056
0001f0 01 20 70 bb 6b 72 41 3d 02 9a c8 bd 55 79 e3 3c
       -0.003664017 0.047228258 -0.09795 0.027767817
000200 9e af cc 3d c8 de 34 3e 19 43 4d 3e f4 7e d4 bb
       0.09994434 0.1766311 0.20045127 -0.0064848606
000210 ba 65 43 3e d6 0c d5 3d 43 51 1c 3c 96 ea 77 ba
       0.19081774 0.10402839 0.009540859 -0.0009457258
000220 fc 63 fa 3d 95 59 7f 3d 7c 00 43 3e e5 51 5c 3c
       0.12226102 0.06234129 0.19043154 0.01344726
000230 a5 a7 46 3e c7 31 a3 3d f8 bc 87 3e 14 5f 07 3d
       0.19399889 0.07968479 0.2651136 0.033049658
000240 5b dd 0c 3e a6 a2 29 3c 42 c3 6e 3d 4e d3 1a 3e
       0.13756315 0.01035372 0.05829168 0.15119669
000250 6f 65 46 3e fd 44 0a 3e f8 34 1f 3e 76 99 68 3e
       0.19374631 0.1350288 0.1554755 0.2271479
000260 75 99 50 3e bd f1 cf 3c e3 3b c3 3d f7 21 ee 3c
       0.20371039 0.025383824 0.09532907 0.02906893
000270 1c 45 2f 3e 29 b7 1a 3e 90 19 60 3e 79 e4 a9 3d
       0.17116207 0.15108933 0.21884751 0.08295531
000280 4b 41 2a 3e c3 54 e2 bc cc 1e 4b 3e c1 09 e2 bc
       0.1662647 -0.027628308 0.19835967 -0.027592542
000290 e1 e6 b2 3d 42 f9 28 3d b5 14 08 3e a8 0a 20 3e
       0.08735443 0.041253336 0.13289149 0.15629065
0002a0 7e db d5 3d a2 51 90 3d 90 6c 6a 3e c5 ae df 3c
       0.104422554 0.0704682 0.22892976 0.027305016
0002b0 a9 99 ae 3d da 23 53 3e 19 9d 6c 3e bc a5 d4 3d
       0.08525402 0.20619145 0.23106803 0.10383174
0002c0 98 6d 33 3e 9e 7b 0a 3d 47 26 61 3d db 71 81 3d
       0.17522275 0.033809297 0.054968145 0.06320544
0002d0 6c ed 90 3c ae 6d 3c 3d 3b a5 61 bc 96 fe 26 3e
       0.017691337 0.046003036 -0.013772304 0.16308054
0002e0 c9 ed 1a 3e b4 14 03 3d 8a c4 3c 3e cc a9 3d 3c
       0.1512977 0.032002166 0.18434349 0.011576127
0002f0 ae 43 b6 3d b0 ce 45 3e b4 8a 41 3e 21 e9 52 3e
       0.088996276 0.19317126 0.18900567 0.20596744
000300 80 f4 a6 3c 53 23 32 3e e6 5e 8b 3d f0 41 11 3e
       0.020380259 0.17396288 0.0680521 0.1418531
000310 c0 84 69 3e b1 da 5e 3e 1c 99 a7 3b 77 ed 62 3e
       0.22804546 0.21763112 0.0051146876 0.22160898
000320 12 e4 b5 bc bc 7c 9a 3b f5 7c 1c 3d 54 7f 5b 3e
       -0.022203479 0.0047145765 0.038205106 0.2143529
000330 59 51 14 3e e9 a2 fe 3d 6a 63 53 bd ab db 13 3d
       0.14484157 0.124334164 -0.05160848 0.036098164
000340 f6 8d 13 3e 81 56 2c 3e 8d 13 53 3e ab 6f 3e 3d
       0.14409623 0.16829874 0.20612927 0.046493214
000350 10 2e 0b 3e 8a 71 33 3e 5e 60 da 3d 6b ba 88 3d
       0.1359179 0.1752378 0.10662912 0.066761814
000360 46 75 ae 3b 7a 47 3f bc 55 30 a3 3d e3 39 80 3d
       0.0053240387 -0.011674756 0.07968203 0.06261041
000370 43 64 a6 3d a0 27 37 3d 51 27 bd bd f5 06 16 3e
       0.08124592 0.044715524 -0.09236015 0.14651091
000380 99 93 ea 3d 88 a6 cd 3d 6a 7f a2 3d 53 9f 87 bc
       0.11453933 0.10041529 0.079344586 -0.016555464
000390 c9 db 58 bb a7 95 9e 3d c3 89 81 bc e8 d1 e2 3c
       -0.0033089987 0.07743388 -0.01581276 0.027687982
0003a0 59 47 ef 3d c2 24 40 3e 60 9f 9d 3c e3 28 0a be
       0.1168353 0.18764022 0.019241035 -0.1349216
0003b0 f1 8c 45 3e 5b 31 a7 3d 15 68 ca 3d c2 1d 07 3e
       0.19292046 0.08163711 0.09883133 0.13194945
0003c0 7e c1 81 3c ed 2f 41 3e a8 12 60 3e c0 8d cb 3c
       0.015839335 0.18865938 0.21882117 0.024847865
0003d0 b7 01 5f 3e 7e 20 78 3e 30 19 70 3e 83 90 2d 3d
       0.21777998 0.24231145 0.23447108 0.042374145
0003e0 11 ff 6f 3e cd 53 6c 3d ad 85 c8 3d cc c8 43 3e
       0.23437144 0.057697106 0.09791122 0.19119567
0003f0 79 91 4c bc 8b 41 e1 3d 17 a9 c9 3d c9 44 5c 3d
       -0.012485855 0.109988295 0.098467045 0.053776536

router_rnn.bias_ih f4 [192]
000000 db 2a 40 c0 8c 81 40 c0 49 c6 37 c0 ec 03 37 c0
       -3.0026157 -3.007907 -2.8714774 -2.8596144
000010 9e 6d 40 c0 4b ee 3e c0 ab e4 38 c0 9d 9c 40 c0
       -3.0066905 -2.9832942 -2.8889568 -3.009559
000020 a4 d4 35 c0 ab a5 3f c0 ba 93 3e c0 70 e0 38 c0
       -2.8411036 -2.9944866 -2.9777665 -2.8886986
000030 53 e8 3a c0 fb f6 3b c0 1a 90 36 c0 5c b8 40 c0
       -2.92043 -2.9369495 -2.8525453 -3.0112524
000040 5f 7b 3a c0 28 52 3d c0 84 bb 3c c0 92 78 41 c0
       -2.91378 -2.9581394 -2.948945 -3.022984
000050 5a 6d 37 c0 f9 ff 3f c0 b5 42 40 c0 c8 64 40 c0
       -2.8660493 -2.9999983 -3.0040715 -3.0061512
000060 ab 9e 3c c0 e7 fe 36 c0 05 c4 38 c0 b7 77 36 c0
       -2.9471843 -2.859308 -2.886964 -2.8510568
000070 e0 95 40 c0 e2 a2 3f c0 37 63 38 c0 31 c1 35 c0
       -3.0091476 -2.9943166 -2.8810556 -2.8399165
000080 e5 00 41 c0 6d 50 40 c0 af 22 3e c0 20 ed 37 c0
       -3.0156796 -3.0049088 -2.970867 -2.873848
000090 9f 7d 3f c0 f5 d7 40 c0 b8 17 36 c0 a7 65 36 c0
       -2.9920423 -3.013181 -2.8451977 -2.8499544
0000a0 b9 7b 37 c0 16 1b 40 c0 33 0f 35 c0 4e 2c 37 c0
       -2.8669264 -3.0016532 -2.8290527 -2.8620791
0000b0 b7 27 40 c0 12 de 3f c0 93 ed 3c c0 60 3b 39 c0
       -3.002424 -2.997929 -2.9520004 -2.894249
0000c0 49 11 3e c0 d5 c5 36 c0 bf da 3f c0 df 52 36 c0
       -2.969805 -2.8558247 -2.9977262 -2.848808
0000d0 fd 13 40 c0 78 5c 3f c0 8b ed 3f c0 1d b4 3c c0
       -3.00122 -2.9900188 -2.9988735 -2.9484932
0000e0 0d ee 40 c0 3a 52 3b c0 30 07 41 c0 71 a3 3e c0
       -3.0145295 -2.9268937 -3.0160637 -2.9787257
0000f0 c4 76 38 c0 fe 92 41 c0 5c 38 37 c0 26 63 40 c0
       -2.8822489 -3.0245967 -2.862815 -3.0060515
000100 a4 8e 8d 40 66 95 8f 40 aa ad 8e 40 02 52 8d 40
       4.423662 4.486987 4.458699 4.4162607
000110 0f fb 8e 40 88 99 93 40 96 5b 8e 40 4d a8 92 40
       4.468147 4.6124916 4.44868 4.5830445
000120 1e bd 8d 40 8d a2 8f 40 a6 c2 8d 40 fb 41 8d 40
       4.4293356 4.4885926 4.430011 4.4143043
000130 ec 0a 8d 40 e9 66 8e 40 53 a9 8e 40 79 77 8f 40
       4.407583 4.4500623 4.4581695 4.483334
000140 9e dc 8c 40 6b 33 8f 40 02 2a 8f 40 6d c1 90 40
       4.401931 4.4750266 4.473878 4.5236115
000150 5a e4 8d 40 62 b6 8d 40 f2 ba 8e 40 a2 f7 92 40
       4.434125 4.4285135 4.4603205 4.5927286
000160 f0 b2 8d 40 7e 47 8e 40 03 a1 8e 40 6e 57 93 40
       4.428093 4.446227 4.4571548 4.6044226
000170 1e 93 8f 40 98 02 90 40 44 63 8e 40 83 81 8e 40
       4.4867086 4.5003166 4.4496174 4.4533095
000180 01 6d 8f 40 69 cb 8e 40 0d c5 8e 40 6b 81 8e 40
       4.482056 4.4623303 4.461554 4.453298
000190 f2 60 8e 40 c7 8f 8f 40 bf ee 8e 40 a2 ad 8d 40
       4.449334 4.486301 4.466644 4.4274454
0001a0 73 9f 8e 40 ad e6 8e 40 a9 8d 8e 40 dd 15 8e 40
       4.456964 4.4656587 4.4547925 4.440169
0001b0 b9 b0 8f 40 dc 57 91 40 db a6 93 40 8b 41 8d 40
       4.4903226 4.541975 4.614118 4.414251
0001c0 49 50 8e 40 31 d0 8d 40 bf 58 8d 40 a5 cf 8e 40
       4.4473004 4.431664 4.4170833 4.462847
0001d0 51 f1 8e 40 d2 27 8e 40 3f 7a 8e 40 85 f1 8c 40
       4.4669576 4.442361 4.4524226 4.4044824
0001e0 b9 16 8f 40 a7 a1 8d 40 48 62 8e 40 e7 44 8d 40
       4.471524 4.425983 4.449497 4.414661
0001f0 35 af 8e 40 a7 83 8f 40 74 4c 8e 40 29 82 90 40
       4.4588876 4.484821 4.4468327 4.5158887
000200 e2 3e 28 bd 91 01 42 bb 60 8a 63 bd b5 e1 2e bd
       -0.041075595 -0.0029602984 -0.055551887 -0.04269572
000210 c7 8f bd 3c cd 27 3c 3d f2 1f bd bc 05 cf 18 3b
       0.023139847 0.045936394 -0.023086522 0.0023316753
000220 cc f3 97 bd 87 9d f7 3b ea ea fb bc 2a fd dd bc
       -0.074195474 0.0075566205 -0.030751664 -0.027098257
000230 b5 3f ef bc fc 64 eb bc 0d 76 8d bd 32 92 a8 3c
       -0.029205183 -0.028734677 -0.06907282 0.020577524
000240 3a 74 11 bd c2 d6 81 bc 0d f7 2a bc ed bd d0 3c
       -0.035511233 -0.015849475 -0.010434878 0.025481189
000250 42 6f 3d bd 67 99 6a bd 77 c5 1c bd 14 c6 fa 3c
       -0.04624868 -0.057275202 -0.038274255 0.03061203
000260 f4 cd 32 bc 3e de df bc b1 43 43 bd bb 34 b6 bc
       -0.010913361 -0.027327653 -0.047671977 -0.02224194
000270 df 8f d0 3c 23 6d 04 3d 51 29 84 bd 69 56 35 bd
       0.025459228 0.032330643 -0.06453193 -0.04427186
000280 c2 d0 91 3c dd d2 d3 3c d2 98 46 bc af 91 b8 bc
       0.017799739 0.025857383 -0.012121396 -0.022530405
000290 87 02 d9 bc 55 f5 5e 3b cf d9 d1 bc b6 e6 28 bd
       -0.026490463 0.003402074 -0.025616555 -0.041235648
0002a0 4d 2f e9 bc 9f eb b2 ba f4 5c 15 bd 71 57 8e bd
       -0.028464938 -0.0013650543 -0.0364656 -0.06950272
0002b0 ca 76 16 3d 29 de a5 3c c4 a9 53 3d 04 34 21 bd
       0.03673438 0.020247536 0.051675573 -0.039356247
0002c0 9a 08 3d bd 38 3d 04 bd 64 09 1e bd 4d 93 14 bd
       -0.04615078 -0.032284945 -0.038583174 -0.03627329
0002d0 3d 57 c0 b9 b7 4d d6 bc 1a 6f 52 3b 0c 41 96 bc
       -0.0003668609 -0.026160104 0.0032109679 -0.018341564
0002e0 63 54 ac bb 03 63 16 bd 6e 14 07 bb 21 5a 10 bd
       -0.005259083 -0.03671552 -0.0020611542 -0.035242204
0002f0 6f 59 30 bd 22 12 26 3d e9 61 fa bc 95 88 d9 3c
       -0.04305404 0.040544637 -0.030564265 0.026554385

router_rnn.bias_hh f4 [192]
000000 db 2a 40 c0 8c 81 40 c0 49 c6 37 c0 ec 03 37 c0
       -3.0026157 -3.007907 -2.8714774 -2.8596144
000010 9e 6d 40 c0 4b ee 3e c0 ab e4 38 c0 9d 9c 40 c0
       -3.0066905 -2.9832942 -2.8889568 -3.009559
000020 a4 d4 35 c0 ab a5 3f c0 ba 93 3e c0 70 e0 38 c0
       -2.8411036 -2.9944866 -2.9777665 -2.8886986
000030 53 e8 3a c0 fb f6 3b c0 1a 90 36 c0 5c b8 40 c0
       -2.92043 -2.9369495 -2.8525453 -3.0112524
000040 5f 7b 3a c0 28 52 3d c0 84 bb 3c c0 92 78 41 c0
       -2.91378 -2.9581394 -2.948945 -3.022984
000050 5a 6d 37 c0 f9 ff 3f c0 b5 42 40 c0 c8 64 40 c0
       -2.8660493 -2.9999983 -3.0040715 -3.0061512
000060 ab 9e 3c c0 e7 fe 36 c0 05 c4 38 c0 b7 77 36 c0
       -2.9471843 -2.859308 -2.886964 -2.8510568
000070 e0 95 40 c0 e2 a2 3f c0 37 63 38 c0 31 c1 35 c0
       -3.0091476 -2.9943166 -2.8810556 -2.8399165
000080 e5 00 41 c0 6d 50 40 c0 af 22 3e c0 20 ed 37 c0
       -3.0156796 -3.0049088 -2.970867 -2.873848
000090 9f 7d 3f c0 f5 d7 40 c0 b8 17 36 c0 a7 65 36 c0
       -2.9920423 -3.013181 -2.8451977 -2.8499544
0000a0 b9 7b 37 c0 16 1b 40 c0 33 0f 35 c0 4e 2c 37 c0
       -2.8669264 -3.0016532 -2.8290527 -2.8620791
0000b0 b7 27 40 c0 12 de 3f c0 93 ed 3c c0 60 3b 39 c0
       -3.002424 -2.997929 -2.9520004 -2.894249
0000c0 49 11 3e c0 d5 c5 36 c0 bf da 3f c0 df 52 36 c0
       -2.969805 -2.8558247 -2.9977262 -2.848808
0000d0 fd 13 40 c0 78 5c 3f c0 8b ed 3f c0 1d b4 3c c0
       -3.00122 -2.9900188 -2.9988735 -2.9484932
0000e0 0d ee 40 c0 3a 52 3b c0 30 07 41 c0 71 a3 3e c0
       -3.0145295 -2.9268937 -3.0160637 -2.9787257
0000f0 c4 76 38 c0 fe 92 41 c0 5c 38 37 c0 26 63 40 c0
       -2.8822489 -3.0245967 -2.862815 -3.0060515
000100 a4 8e 8d 40 66 95 8f 40 aa ad 8e 40 02 52 8d 40
       4.423662 4.486987 4.458699 4.4162607
000110 0f fb 8e 40 88 99 93 40 96 5b 8e 40 4d a8 92 40
       4.468147 4.6124916 4.44868 4.5830445
000120 1e bd 8d 40 8d a2 8f 40 a6 c2 8d 40 fb 41 8d 40
       4.4293356 4.4885926 4.430011 4.4143043
000130 ec 0a 8d 40 e9 66 8e 40 53 a9 8e 40 79 77 8f 40
       4.407583 4.4500623 4.4581695 4.483334
000140 9e dc 8c 40 6b 33 8f 40 02 2a 8f 40 6d c1 90 40
       4.401931 4.4750266 4.473878 4.5236115
000150 5a e4 8d 40 62 b6 8d 40 f2 ba 8e 40 a2 f7 92 40
       4.434125 4.4285135 4.4603205 4.5927286
000160 f0 b2 8d 40 7e 47 8e 40 03 a1 8e 40 6e 57 93 40
       4.428093 4.446227 4.4571548 4.6044226
000170 1e 93 8f 40 98 02 90 40 44 63 8e 40 83 81 8e 40
       4.4867086 4.5003166 4.4496174 4.4533095
000180 01 6d 8f 40 69 cb 8e 40 0d c5 8e 40 6b 81 8e 40
       4.482056 4.4623303 4.461554 4.453298
000190 f2 60 8e 40 c7 8f 8f 40 bf ee 8e 40 a2 ad 8d 40
       4.449334 4.486301 4.466644 4.4274454
0001a0 73 9f 8e 40 ad e6 8e 40 a9 8d 8e 40 dd 15 8e 40
       4.456964 4.4656587 4.4547925 4.440169
0001b0 b9 b0 8f 40 dc 57 91 40 db a6 93 40 8b 41 8d 40
       4.4903226 4.541975 4.614118 4.414251
0001c0 49 50 8e 40 31 d0 8d 40 bf 58 8d 40 a5 cf 8e 40
       4.4473004 4.431664 4.4170833 4.462847
0001d0 51 f1 8e 40 d2 27 8e 40 3f 7a 8e 40 85 f1 8c 40
       4.4669576 4.442361 4.4524226 4.4044824
0001e0 b9 16 8f 40 a7 a1 8d 40 48 62 8e 40 e7 44 8d 40
       4.471524 4.425983 4.449497 4.414661
0001f0 35 af 8e 40 a7 83 8f 40 74 4c 8e 40 29 82 90 40
       4.4588876 4.484821 4.4468327 4.5158887
000200 1a 5c e5 bc 65 8b ce 3c 65 2f 16 be 04 ca ce bd
       -0.027998019 0.025212953 -0.14666517 -0.10097125
000210 ba 6f e0 3c ec 2a 8b 3d db 21 85 bd 7a 8b 89 3a
       0.027397025 0.06795296 -0.06500598 0.0010493838
000220 d4 7f 0c be 43 e2 80 3c 88 5d d5 bc 14 a1 9e bd
       -0.13720638 0.01573289 -0.026045576 -0.07745567
000230 28 4a 5c bd 5a d9 09 bd 1e af ac bd 6d 5d 1e 3d
       -0.05378166 -0.03365455 -0.084318385 0.038663317
000240 38 80 82 bd bb 6e ce bc d5 ef 7d bc d0 11 0d 3d
       -0.06372112 -0.025199285 -0.015499075 0.034440815
000250 d0 75 03 be 7a 40 2f bd 4c e0 f3 bc 12 e6 ed 3c
       -0.1283791 -0.0427861 -0.029770039 0.02904037
000260 18 68 cd bc 8e 93 b0 bd dd 1a f3 bd 11 ae ab bd
       -0.02507405 -0.08621894 -0.11870358 -0.0838281
000270 f6 2d f7 3c aa 30 12 3d d4 03 e6 bd 04 2f 04 be
       0.030173283 0.03569094 -0.11231199 -0.1290856
000280 de 2c 9d 3c 35 f6 ec 3c 17 d0 47 bc 6b 8b 9c bd
       0.019186433 0.028925994 -0.012195609 -0.07643779
000290 4c de 93 bc 37 dd d7 3b d3 03 a5 bd 31 99 04 be
       -0.018050335 0.00658765 -0.0805737 -0.12949063
0002a0 22 3c e4 bd 98 13 a1 3b 47 a0 ef bd 7e 84 c1 bd
       -0.11144282 0.004915666 -0.11700492 -0.09449099
0002b0 98 81 31 3d e0 00 04 3d e4 00 89 3d 2d c8 a4 bd
       0.04333648 0.032227397 0.06689623 -0.08045993
0002c0 9c bb 2d bd 6d 90 d5 bd 43 2e 46 bc b8 89 ca bd
       -0.042415246 -0.10427938 -0.012095991 -0.09889549
0002d0 de 25 c1 3b 71 45 a2 bc 04 ac e5 3b 62 9f 51 3c
       0.0058944067 -0.019808503 0.0070090313 0.0127943475
0002e0 40 5b 88 bb ed a0 84 bd 0f e9 0c 3c ab f4 26 bd
       -0.0041612685 -0.06476007 0.008600487 -0.040760677
0002f0 9a d8 a4 bd 00 04 55 3d aa d8 7b bd 35 bc ec 3c
       -0.08049126 0.052005768 -0.061485924 0.028898338

gain_gate.weight f4 [2, 64]
000000 2b 89 db 3c e6 aa a2 3d 63 41 84 3d 0f e6 74 bd
       0.026798805 0.079427525 0.06457784 -0.059789713
000010 48 54 71 bd 09 2b 08 bd c0 3a 6f bc 10 20 96 3d
       -0.058918267 -0.033244167 -0.014601409 0.07330334
000020 1e 54 8b bd 6f b6 64 3d 31 09 fb bb db 52 1e bc
       -0.068031535 0.055838045 -0.007661008 -0.009663309
000030 0e e9 95 3a 94 11 14 3c ed 82 83 3d b1 50 db bc
       0.0011437254 0.009037394 0.064214565 -0.026771875
000040 44 07 05 bd 54 2a e4 3d 03 54 68 3d 82 80 cd 3d
       -0.032477632 0.11140886 0.056720745 0.100342765
000050 17 8f 36 3e 0b c1 13 3e f3 0a 12 3e 83 06 dc 3d
       0.17828022 0.14429109 0.1426199 0.107434295
000060 7c b9 84 bd aa 33 61 3d a1 82 b1 3d 60 7f 25 3c
       -0.06480691 0.05498091 0.086674936 0.010101169
000070 b8 8c c5 3c d9 71 96 3d 17 6e 0a 3e 1f 16 fb 3d
       0.024114951 0.073459335 0.13518558 0.12260079
000080 12 e1 00 bc 5f 55 11 3e f6 c6 52 3c 37 66 49 bd
       -0.007866161 0.14192723 0.012864819 -0.049169745
000090 01 c0 cb 3d c7 99 5d 3c 60 3f a0 3d dc 57 cc 3d
       0.09948731 0.013525433 0.07824588 0.09977695
0000a0 72 e7 a1 bb 23 ee 04 3e 0e c1 1b 3c a9 00 08 3d
       -0.0049409205 0.12981467 0.009506477 0.033203755
0000b0 03 cc 2f 3e 1d 48 aa bd b3 cf db 3b 78 9f c0 bc
       0.17167668 -0.08314536 0.0067081093 -0.02351354
0000c0 3f cf 29 3e dd d1 9d 3d ee 8b 29 3e 0c 07 bd 3d
       0.16582964 0.07706044 0.16557285 0.0922986
0000d0 56 bd 16 3d f7 c8 34 3e 43 4a 1c bd 03 5b 8d 3d
       0.03680166 0.17654787 -0.03815676 0.06902125
0000e0 ca 02 81 3d 98 d2 26 bd 0e 77 34 3e 36 fb 0d 3e
       0.0629936 -0.04072818 0.17623541 0.1386536
0000f0 e9 67 d8 3d 8a 3f 76 bd ca c2 09 bc 8d 98 79 bb
       0.10566694 -0.06011919 -0.008408258 -0.0038085312
000100 3a 5a bb bd 86 dc cf bd 28 d9 d7 bd 84 bf 42 3d
       -0.09148069 -0.101494834 -0.10539466 0.047545925
000110 4c 2e 0e bd 00 a9 cc bb 88 41 63 3d 6c dd f8 bd
       -0.03471212 -0.0062457323 0.055482417 -0.12151608
000120 52 28 e6 bd 90 78 d9 bc b0 3e c3 bc 92 1b a7 bd
       -0.11238159 -0.026546746 -0.023833603 -0.081595555
000130 3c 00 b9 bd e0 b7 34 bd b6 17 d3 3d c0 c0 ea bd
       -0.09033248 -0.04412067 0.10307257 -0.114625454
000140 be 19 bc 3d de 75 c8 bd 90 26 52 bc 10 86 b8 bc
       0.091845974 -0.097881064 -0.012826577 -0.022524863
000150 66 e2 e9 3d 10 c0 cc bc 50 13 4a bd 72 07 f3 bd
       0.11420135 -0.024993926 -0.049334824 -0.118666545
000160 1e 07 9e bd 12 7b 97 bd e0 c6 9b bc a6 4e c4 3d
       -0.07716201 -0.07396521 -0.01901573 0.095853135
000170 22 4f b0 3d 48 43 65 bd 18 a3 da 3c 8e 06 9b bd
       0.086088434 -0.055972368 0.026689097 -0.075696096
000180 f4 89 7e 3d 1a d2 fe bd 44 52 68 bd bc 02 de bd
       0.06214328 -0.124424174 -0.05671908 -0.10840365
000190 b8 2c 8e bc e0 17 1f 3d a8 d6 de bd c8 67 b6 bc
       -0.017355308 0.03884113 -0.10880786 -0.022266284
0001a0 bc 42 0f 3d 1c 70 f8 3d d4 13 b4 bd 5a f6 ea 3d
       0.034975752 0.12130758 -0.087928444 0.11472769
0001b0 78 63 f9 bd fc ae d4 3d 14 ad 73 3d f4 06 a2 3d
       -0.12177175 0.10384938 0.059491232 0.079114825
0001c0 fc ae a3 3d d8 49 31 bd 40 7f b4 bb d8 4c cd 3c
       0.0799236 -0.043283314 -0.0055083334 0.025061056
0001d0 e0 19 3e 3c 38 69 f9 bd 98 9d 93 bd 10 06 97 3d
       0.011602849 -0.12178272 -0.07207793 0.07374203
0001e0 04 68 5d bd 14 9e 9d bd 98 ed 0b 3d e0 6d ca 3b
       -0.054054275 -0.07696167 0.034162134 0.006177649
0001f0 bc 7e b2 3d b0 78 04 bd 44 04 37 3d 80 a5 da 3b
       0.08715579 -0.03234166 0.044681802 0.006672561

gain_gate.bias f4 [2]
000000 7b 64 13 3e 86 84 c6 bd
       0.14393799 -0.096932456

bias_gate.weight f4 [4, 64]
000000 0a 7a 3a 3d ec 0b be bd bd 13 82 3d 6f 6d 9b 3c
       0.04552654 -0.09279618 0.06351421 0.01897308
000010 43 db ac bd c9 80 1a be 81 e7 3f bc 4f 5d d2 bd
       -0.08440258 -0.1508819 -0.01171291 -0.102717035
000020 ad 6c 25 3d 74 6f 9e bd 34 4a b8 bd 50 5e 8f bc
       0.040386844 -0.07736102 -0.08998528 -0.017501026
000030 f2 64 7a 3d c6 16 34 3d 5e cb 43 3c 26 a0 07 be
       0.061131425 0.04396703 0.011950342 -0.13244686
000040 0c a3 47 3c 42 9d 32 bd 1d 0c bd bd 30 d6 0d be
       0.0121848695 -0.043607004 -0.09230826 -0.13851237
000050 10 9c 5b 3a de 0f 73 3d 75 96 f2 3c 88 e2 07 be
       0.0008377442 0.059341304 0.02961276 -0.13270009
000060 d2 aa ea bd 63 4c c2 3c b0 60 24 3b 4c bd 3b 3d
       -0.11458363 0.023718065 0.0025082044 0.045834824
000070 44 c0 aa bd 48 05 1c be 6d d5 7e 3d 3f c3 43 3c
       -0.08337453 -0.1523639 0.062215257 0.011948406
000080 ed 9a af bd 99 78 93 bd d0 ff ac bd 00 27 4b 3c
       -0.085744716 -0.072007366 -0.0844723 0.012399435
000090 94 62 27 3c 16 14 15 be 12 5b 19 3d 79 31 99 3d
       0.010216374 -0.14558443 0.037440367 0.07480139
0000a0 a5 cf f1 bd 7d 76 11 be 8d fc b5 3d be f8 2d bd
       -0.11807183 -0.14205356 0.08886061 -0.042473547
0000b0 dc 50 1e be 20 5d 2e bd 8a ca 21 be 66 26 a7 3c
       -0.15460533 -0.04256928 -0.15799919 0.020404052
0000c0 77 4b 6a 3d 4c 8e 9b bd 25 06 a9 3c 8f a6 5f bd
       0.057200875 -0.075955 0.020632813 -0.054602202
0000d0 1f 22 ef bd c4 97 be 3c d4 f1 9b bd cb d5 88 bd
       -0.1167643 0.023265727 -0.076144844 -0.06681403
0000e0 6c ce fc bc ba 6e 33 3d d0 90 6c bd 8b d8 67 bc
       -0.030860148 0.04380677 -0.05775529 -0.014150749
0000f0 ae c6 aa 3b 6d 01 1e be 6b 49 11 be 4e 39 63 bd
       0.0052116727 -0.15430231 -0.14188163 -0.055474572
000100 e2 a6 68 bd 3e 8f 88 bd c9 2e 10 3d 33 ea 17 3b
       -0.056799777 -0.06667946 0.035200868 0.0023180365
000110 55 e5 91 bd 62 c8 58 bd 96 af 8d bd d7 6b fe bc
       -0.0712382 -0.052925475 -0.06918256 -0.031057281
000120 2b 4e 16 3d be 2a 12 be 80 e9 4b 3d 5e c5 af bd
       0.03669564 -0.14274117 0.04978323 -0.08582567
000130 b1 1c 8a bd d7 ba 0f bd a8 81 4b 3d 55 c2 77 3a
       -0.06743754 -0.035090294 0.049684197 0.000945126
000140 07 7a a0 bd 1f fb 63 bd 01 ce 42 bc 7c ce f3 bd
       -0.07835775 -0.05565941 -0.0118899355 -0.11904618
000150 f7 82 1b 3c 6e c2 76 3d f3 ee c8 3b 0a c7 54 bc
       0.009491674 0.060244016 0.0061320006 -0.012986908
000160 0c ab 8f 3b a5 99 b7 bd db e5 a9 bb 1f 97 0e be
       0.004384404 -0.08964852 -0.0051848716 -0.13924836
000170 99 82 c7 bd e6 84 1b be b6 67 9a 3c ae 38 98 3a
       -0.097417064 -0.15187415 0.018848281 0.0011613572
000180 09 c3 98 bd fa ef 25 be 9b a6 4a 3d 53 aa f2 bd
       -0.07459075 -0.16204825 0.049475294 -0.11848893
000190 eb 61 69 3b 40 2f 22 bd 04 d1 02 be c0 a5 1f bd
       0.0035611342 -0.039595842 -0.12775046 -0.03897643
0001a0 91 ba a4 3d 0d 25 96 ba 2b 55 1e be 08 7d 84 3d
       0.08043397 -0.0011455134 -0.15462177 0.0646916
0001b0 de 29 04 be 8f a2 ea bd a4 69 12 be 6c 11 89 bd
       -0.12906596 -0.11456787 -0.14298111 -0.06692776
0001c0 33 17 dd 3c e2 fd 5d 3d 93 76 b3 bd b3 a3 66 3d
       0.026988601 0.0541972 -0.087628506 0.05630846
0001d0 1d 78 0e 3c f0 34 77 bc 04 c6 9a bc bf a6 9a bd
       0.008695629 -0.015088305 -0.01889325 -0.075513355
0001e0 61 97 00 be df 53 a8 bd 7b 26 5e bd ba 52 1e bd
       -0.12557746 -0.08219122 -0.054235917 -0.038653113
0001f0 9b bc b5 bc a8 fe a7 bd 7e 04 b1 3d 78 7c 1e be
       -0.02218466 -0.08202869 0.08643435 -0.15477169
000200 9d 69 12 3d ab f4 61 bd 0c 77 4f bd 43 8b 8e 3d
       0.035745252 -0.055164974 -0.05065064 0.06960156
000210 22 7e 0e bc 8b 47 76 3d 8a 0a d2 bd 88 d9 b4 3c
       -0.008697065 0.060126822 -0.102559164 0.022076383
000220 e0 18 65 b9 31 df 9f bd e0 82 af bd 33 e9 20 bd
       -0.00021848409 -0.07806242 -0.08569884 -0.039284896
000230 73 39 d8 3d a9 72 b1 3d a4 37 72 3d 60 47 e7 bc
       0.105578326 0.08664448 0.059135094 -0.028232276
000240 94 39 39 3d 1b 27 d6 bd 57 82 be bd ed 98 26 bd
       0.045220926 -0.104566775 -0.09302204 -0.040673185
000250 ec 1f 80 bd 90 57 47 bd 1d ec c3 bd ef c0 d6 bb
       -0.062560886 -0.04866749 -0.095665194 -0.006553761
000260 bb f4 95 bd da 01 d3 bd 9d 06 86 bd dd 84 2f bd
       -0.07322069 -0.103030875 -0.0654423 -0.042851318
000270 0a ce 82 3d 7c fc 01 3e f0 a1 e1 3b 6f 97 62 bc
       0.06386955 0.12693971 0.0068857595 -0.01383005
000280 46 ae ed 3d af fe ca bc f2 a7 72 3d 61 36 a8 bd
       0.11605506 -0.024779646 0.059242196 -0.08213497
000290 5d 54 0f 3e e8 30 9d bd b8 44 92 bd 05 e4 b2 bd
       0.13997026 -0.07675344 -0.07142013 -0.087348975
0002a0 66 be 29 bd 29 a6 97 bc ca 55 4a bd 07 23 8c 3d
       -0.041441344 -0.018511849 -0.04939822 0.068426184
0002b0 30 df c9 3c bc 4d 0e 3d d1 c1 5c 3c a4 bc 98 3d
       0.024642557 0.034742102 0.013473944 0.07457855
0002c0 7a fa 02 3e 4f 89 84 bd 35 7d 84 3d a8 e2 d6 bd
       0.12790862 -0.06471502 0.06469194 -0.1049245
0002d0 1e 7f a5 3d c3 f4 e8 3d 8e 46 e7 3d 63 5d 2c bd
       0.08080886 0.113748096 0.11292754 -0.042081248
0002e0 94 30 a6 bd 3e 38 d8 3d 3a 5b 91 3c 55 92 18 3d
       -0.08114734 0.10557602 0.017743696 0.037248928
0002f0 82 b1 a4 3c 09 86 b4 bd 60 50 12 3a f0 b3 18 3d
       0.020104174 -0.08814628 0.0005581435 0.037280977
000300 8d 5a c5 3d 2e f6 ab bd c6 46 4b bd 1f 1e 84 3d
       0.09636412 -0.083965644 -0.04962804 0.06451058
000310 56 f0 be 3d 34 33 b2 bd 1c d6 dd 3d fe 5d b6 bd
       0.09323184 -0.087011725 0.10831854 -0.08904646
000320 0e 05 e9 bc 93 c1 09 bd 6f 4b 50 3c 46 3f 8d 3d
       -0.028444793 -0.033631872 0.012713297 0.06896834
000330 6b ac 1b 3d e9 9a 81 3d 4b 26 37 bc 14 30 cb 3d
       0.038006227 0.06328375 -0.011178563 0.099212795
000340 b5 9f 35 3d 3e 2a 62 bd 41 37 8f bd bf 8b 92 bd
       0.04434176 -0.055216067 -0.06992961 -0.07155561
000350 30 af 45 3c 3a 95 d2 bd 55 97 ab bd 2c 15 ae 3d
       0.012065694 -0.10282369 -0.08378474 0.08500132
000360 94 3c 49 3a e5 0d ed bc 90 5e bf 3d 58 c3 63 bd
       0.00076765683 -0.02893729 0.09344208 -0.055606216
000370 fa 17 15 3d a2 6f 00 3e 63 93 b9 3d d2 9f c1 bd
       0.03639982 0.12542585 0.09061315 -0.094543114
000380 3a 86 6d bc 7e 42 f0 bc 4b 4d 93 3d 95 6d 5f 3d
       -0.014497334 -0.029328581 0.07192477 0.054547865
000390 3c 38 71 bd 95 0f bb bd ca 33 be bd 73 2c cd bd
       -0.05889152 -0.091338314 -0.09287222 -0.10018244
0003a0 6b ad 2d bc 91 85 dd bd 34 60 82 bd 39 8e 67 bd
       -0.010600428 -0.108164914 -0.063660055 -0.05653212
0003b0 e7 d3 f0 bd fd 69 c8 3d f5 9c 3a 3d 42 0f 2b bc
       -0.11759167 0.09785841 0.045559842 -0.010440649
0003c0 b9 48 c9 bc 49 12 fe bc 18 73 8c ba 6c 6b 5c 3d
       -0.02457081 -0.031014578 -0.0010715453 0.053813383
0003d0 d9 8c b1 bd ee 89 73 3c ac d7 54 bd 8e d8 ba 3c
       -0.08669443 0.014864428 -0.051963493 0.02280834
0003e0 34 fc 82 bc 82 80 c2 bd 73 7f 94 3d 1d 0f 4a 3d
       -0.0159894 -0.09497167 0.072508715 0.04933082
0003f0 99 d7 a4 3d 64 81 f9 3d 01 ef 61 3d a2 8b 03 3e
       0.080489345 0.121828824 0.055159573 0.12846234

bias_gate.bias f4 [4]
000000 82 7b 55 be c7 11 a8 bd 23 64 77 bc b5 f2 4d bd
       -0.20847896 -0.08206516 -0.015099558 -0.05028029

reflex_layer.0.weight f4 [64, 2]
000000 9d ac 3b 3e aa 24 73 be 23 07 c8 be 28 c9 27 3e
       0.18327565 -0.23744455 -0.39067945 0.16385329
000010 25 bd 07 bd 5a 2c f1 be 66 bd 19 3f 80 f1 16 be
       -0.033139367 -0.4710415 0.60054624 -0.14740562
000020 9c 3d 14 3e 28 7e e9 3d 03 9e 87 3e c2 a4 d7 3e
       0.14476627 0.114010155 0.2648774 0.42117888
000030 62 89 be 3e 62 3a 14 bf b4 74 5d be cf ff 0a 3f
       0.3721419 -0.57901585 -0.2162655 0.5429658
000040 b1 5a c2 3e 48 e3 e2 bd 56 f4 0e bf 75 c8 0f 3f
       0.37959817 -0.11078507 -0.5584158 0.5616525
000050 a9 8f e1 bd f1 78 2d bf 79 14 d8 3d 0d 75 d4 be
       -0.11013729 -0.67762667 0.1055078 -0.41495553
000060 bc fb a1 be 59 c7 19 3f 3a e5 c7 be 3f 67 08 3f
       -0.3163737 0.60069805 -0.39042073 0.5328254
000070 9f 35 3c bd f8 18 2e bf 62 50 a0 3e 8c a9 3f 3e
       -0.045949575 -0.6800685 0.31311327 0.18717021
000080 9e 29 86 3e 8c 45 09 be 7a d4 a2 3e 36 59 26 bf
       0.26203626 -0.13405436 0.31802732 -0.64979875
000090 2a 54 02 3f c0 ae 3f bc 7e de 2e be 5f a9 fb be
       0.50909674 -0.0116993785 -0.17077062 -0.49152657
0000a0 dc 53 45 be dc b6 5e 3e 78 0f 21 3f 3c f2 67 3e
       -0.19270271 0.21749443 0.6291423 0.22650999
0000b0 76 2f bd 3e 09 33 b7 be fe 9c 0e bf e3 2c 33 3f
       0.36950272 -0.35781124 -0.557083 0.69990367
0000c0 84 18 b1 3e 2c af 39 3e ea 58 9f 3e d6 58 d8 3e
       0.34589016 0.18133229 0.31122524 0.42255276
0000d0 de 99 ca be d3 6f 8f be 0e 2f a9 be 9e 36 d7 3e
       -0.39570516 -0.28015003 -0.33043712 0.42033857
0000e0 2b c8 fb 3e 72 67 ef 3e 00 bd e6 3c b8 1d 0b be
       0.49176154 0.4675861 0.028166294 -0.13585556
0000f0 94 a0 69 3e 16 24 19 bf cc 54 ca 3e d3 53 d9 be
       0.22815162 -0.5982069 0.3951782 -0.42446765
000100 90 42 15 bd fb 04 01 bf dc 37 b8 3e 44 17 06 be
       -0.036440432 -0.50398225 0.35980117 -0.13094813
000110 e5 49 2a 3f 2e 6f b9 3e 6c 20 0b bf 82 d8 84 3e
       0.66519004 0.36217636 -0.54346347 0.25946432
000120 14 a8 ee 3e 33 22 1d 3f ab 24 65 bd 6d 23 12 3f
       0.46612608 0.6138031 -0.055943172 0.57085305
000130 81 1f d4 bd 34 61 0a be 10 4d 07 bf 90 18 01 bf
       -0.103575714 -0.13513643 -0.52851963 -0.50428104
000140 7d 56 ea be 0c 0b 2d bf ec e8 2d be 5e 91 19 bf
       -0.4576911 -0.6759498 -0.16983384 -0.5998744
000150 bb c7 44 3f 08 7d f7 bd b5 ae 29 bf 4a bf 0c bf
       0.76867265 -0.12084395 -0.66282207 -0.54979384
000160 ea 33 e4 be d5 d5 db be e2 d2 c2 be 29 5f 23 bf
       -0.44570857 -0.42936578 -0.38051516 -0.6381708
000170 14 1c 37 bf 20 a4 e1 3d d9 d1 72 3e e8 a0 dc be
       -0.7152722 0.110176325 0.23712863 -0.43091512
000180 20 7c 0f 3f cd 60 1b 3f 53 1d 0e 3f 62 c2 84 3e
       0.56048775 0.6069458 0.55513495 0.25929552
000190 dd 8b 05 3f ee e8 a4 3e cc e3 1a bf 10 63 10 3e
       0.5216654 0.3220896 -0.6050384 0.1410029
0001a0 a0 1b 6b 3e 8a a2 d6 3e 9b cd 23 bf 57 46 ae be
       0.22959757 0.41920882 -0.63985604 -0.3403804
0001b0 f5 5b ee 3e 7c 98 80 be d7 31 04 3f 0e 47 8d be
       0.46554533 -0.25116336 0.5163855 -0.27593273
0001c0 9c 5b db bd 70 a2 f2 be 08 03 91 3e e9 a5 10 bf
       -0.107108325 -0.47389555 0.28322625 -0.5650316
0001d0 94 72 a1 3e 70 37 83 3e 87 c9 87 be ea 6e 89 3e
       0.3153273 0.25628233 -0.2652094 0.26842433
0001e0 0b e5 15 bd 76 00 bb 3e 63 04 89 3e 60 e5 86 bc
       -0.036595386 0.3652379 0.2676116 -0.016466796
0001f0 64 42 04 3e 4c 8b 85 be 54 46 58 be 4c a0 28 3e
       0.12915951 -0.26082838 -0.21120578 0.16467398

reflex_layer.0.bias f4 [64]
000000 92 03 4f 3e 5b db 2a bf d4 16 79 3e 8c 37 fd bd
       0.20216206 -0.6674096 0.24325114 -0.1236411
000010 a0 14 ee be 6f c5 fd 3e f9 36 d0 bd 68 03 88 bd
       -0.4650011 0.49564692 -0.10166735 -0.06641275
000020 16 6f cf 3d b7 7a 15 3f 51 31 2e 3f 95 4e 12 3f
       0.1012861 0.58390373 0.68044 0.57151157
000030 be f3 29 bf 90 e2 bc bd 8d f9 b9 3e f0 4e d5 be
       -0.66387546 -0.09222901 0.36323205 -0.41661787
000040 3c 1a ef 3e fc 9b 2f 3f 74 42 3d 3f e3 5d c0 3e
       0.46699703 0.6859739 0.73929524 0.3757163
000050 24 81 0b 3f 86 ec ed bd a5 a3 de be c0 ec 92 bc
       0.5449393 -0.11617379 -0.43484226 -0.017935157
000060 6b 86 29 3e 48 3d 74 3d ad 56 24 3e a0 18 38 3f
       0.16555183 0.059628755 0.16048689 0.71912575
000070 dc df 0e 3f f4 9a 11 be b0 f1 9c 3d 27 4f ca be
       0.5581033 -0.14219266 0.07663286 -0.39513513
000080 1a cd 39 3f 5b bd 4b 3f 96 61 ba be e6 4b 21 bf
       0.72578585 0.7958581 -0.36402577 -0.63006437
000090 76 28 b7 3e bc 5b 19 3e d7 48 52 3e eb c8 95 be
       0.35773057 0.149764 0.20535599 -0.2925485
0000a0 3c 68 4d 3f da f8 29 bf 97 49 a4 bd 62 fa e1 be
       0.80237174 -0.6639534 -0.08021849 -0.4413634
0000b0 d6 f2 3d 3f b3 27 9b be 5e e1 48 3f c8 fe db 3e
       0.74198663 -0.30303726 0.78468883 0.4296782
0000c0 35 87 c1 be 1b 6d 18 bf 92 a6 b6 bd f9 ce 2e 3f
       -0.37798467 -0.5954148 -0.089184895 0.68284565
0000d0 d8 1d 97 be d5 0f ec 3e e4 6c 2d 3f 5e 85 2f be
       -0.29514956 0.4610583 0.6774428 -0.1714072
0000e0 6e 50 4c 3e 4a d2 2f bf c4 88 a0 bd 58 f1 18 3e
       0.19952556 -0.6868025 -0.07838586 0.14935815
0000f0 13 a6 27 3d 5d 56 8b be 43 1c dd be b0 20 84 bd
       0.040929865 -0.27214327 -0.43185624 -0.06451547

reflex_layer.2.weight f4 [4, 64]
000000 5b af 9e 3b b0 36 f3 bd ef 89 fd 3c 03 cb 4e 3e
       0.0048426813 -0.11875665 0.03094956 0.2019463
000010 16 fc b0 3d ce 30 08 bd 99 a0 79 3e 66 53 d6 bd
       0.086418316 -0.03324967 0.2437767 -0.10465126
000020 73 cc 6c 3b ac 83 27 3c 1d b1 e7 bd 96 bf ba bd
       0.0036132603 0.010224264 -0.113130786 -0.09118573
000030 fa 3f d2 3d 20 e4 eb bc 81 1f 0e 3c f4 cf 6b bd
       0.10266109 -0.028795302 0.008674503 -0.057571366
000040 bb 08 32 be e8 2b 80 bd d1 de 56 be 90 c3 19 be
       -0.17386143 -0.062583745 -0.20983435 -0.15016007
000050 a0 b6 66 bd 24 be a9 3c 00 53 03 bc 10 7a ea 3d
       -0.05632651 0.020720549 -0.008015394 0.11449063
000060 e5 7e 3f bd 5e 6c 8e bd d8 50 29 be 9e 72 0e bd
       -0.046751875 -0.06954263 -0.16534746 -0.034777276
000070 2a aa 57 bb a4 1e 12 bd 9a 64 b1 bd 4f a2 b1 bd
       -0.0032907822 -0.035673752 -0.08661766 -0.08673536
000080 40 d2 d5 bb b3 d3 40 be 84 3c 7c 3e 0c c3 52 3d
       -0.006525308 -0.18830757 0.2463246 0.051455542
000090 e6 e2 09 3d 61 03 58 be ba 79 2e be 04 29 59 3d
       0.033663653 -0.21095039 -0.17038622 0.05301763
0000a0 5b 1d 28 be 60 f3 82 bd d1 b8 7b 3e 40 1f 15 3c
       -0.16417448 -0.06394076 0.2458222 0.009101689
0000b0 47 5e 30 be 78 9d b9 bd c8 6e 1d bd 84 ee af bc
       -0.17223464 -0.09063238 -0.038435727 -0.021476038
0000c0 8f 49 8b 3e 2e 3d e0 3d 29 c3 08 3e a3 d2 51 be
       0.27204558 0.10949169 0.13355698 -0.20490508
0000d0 40 e5 ad bd c8 d2 19 bd ac 01 59 be 73 4a 54 3e
       -0.084909916 -0.037554532 -0.21192044 0.20731525
0000e0 a9 fa f1 bd e4 19 c9 3d a0 72 29 3e c7 d1 04 bc
       -0.11815388 0.09819391 0.16547632 -0.008106655
0000f0 dd 1f 88 bc 7a 8d 9f bd 36 4b ed bd fe 09 8b bd
       -0.016616756 -0.077906564 -0.11586611 -0.06789015
000100 2b d8 9e bd 5c 91 89 bd 98 e8 84 bd 82 cb 8a 3e
       -0.077560745 -0.06717178 -0.06489676 0.2710839
000110 3c 0e 28 3d 35 28 23 bd bb fe 47 3e 08 a7 fb 3c
       0.0410292 -0.039833266 0.19530766 0.030719295
000120 2a fa 47 be 2e 69 71 3c 13 22 e2 bd 03 d5 43 be
       -0.19529024 0.014734549 -0.110416554 -0.19124226
000130 50 9a e0 3c d0 56 d2 bd 54 b2 4e be e0 d7 8f 3c
       0.027417332 -0.102704644 -0.20185214 0.017558992
000140 54 91 9c bd 86 61 26 be 06 29 48 be e9 65 97 bc
       -0.07644907 -0.1624814 -0.19546899 -0.018481212
000150 f5 7e af bd 10 39 86 3e 36 d7 cc bd 0e 07 a0 bd
       -0.08569137 0.2621541 -0.10001986 -0.078138456
000160 10 1b 35 be 43 b9 f3 bb 47 ef 00 3d b5 9b 49 be
       -0.17686105 -0.0074378564 0.031478193 -0.19688304
000170 5d 9a d3 3b d8 89 1d 3d b5 c7 4d bc ab 92 c2 3c
       0.0064576105 0.038461536 -0.012559821 0.023751577
000180 d1 56 08 be 94 4a 57 bd 7c 52 32 3e 08 77 fc 3d
       -0.13314368 -0.052561358 0.17414278 0.12327391
000190 f2 7a a2 3c 02 bf 37 be f2 a1 7c be 84 07 29 3d
       0.019834016 -0.17943957 -0.24671152 0.041266933
0001a0 f2 36 86 bd 00 ae c2 3d cd 9d 0b 3e 38 35 97 bc
       -0.06553449 0.09505844 0.13634415 -0.018457994
0001b0 c6 d1 3c bd e0 19 d0 3b 59 63 62 be 57 1f 01 be
       -0.046098493 0.006350741 -0.2210821 -0.12609611
0001c0 f7 52 05 3e 80 ce 52 3d e9 ee 96 3e 02 79 54 be
       0.1301993 0.051466465 0.2947915 -0.20749286
0001d0 90 da 24 3d 62 76 53 be aa 6d 31 bd d9 59 77 3e
       0.0402475 -0.20650628 -0.043317474 0.24155368
0001e0 66 23 38 bd be e7 95 3d 58 f7 2c 3e 07 48 25 be
       -0.044955634 0.07319592 0.16891229 -0.16140758
0001f0 fa 9c 4f bd 2b f5 31 bd 90 e4 e1 bc 7c 74 04 bd
       -0.050686814 -0.0434467 -0.027574807 -0.03233765
000200 08 a3 9e bc e8 3d ea bd 1c 36 4d bd 07 94 06 be
       -0.019364849 -0.11437589 -0.05010043 -0.13142405
000210 98 c7 e4 bc 1a 3e 57 3d 3c a3 ed bd 60 2c c3 3b
       -0.027927205 0.05254946 -0.116034 0.0059562176
000220 ee 3e fc bd 97 87 c5 bd b0 36 92 3d 88 cd cb 3d
       -0.123166904 -0.09645002 0.07139337 0.09951311
000230 b4 f2 c5 bd 20 c4 66 bd 12 5e 67 3a 00 10 42 bd
       -0.096654326 -0.056339383 0.0008825968 -0.04737854
000240 d7 65 06 bd 9a 01 82 bd b9 1d 0c be 28 28 da bd
       -0.032811966 -0.06347962 -0.13683213 -0.106521904
000250 57 b3 ba 3d 33 e5 9f bc 7a 18 ff 3d 48 9c 78 3d
       0.091162376 -0.01951847 0.124558404 0.060695916
000260 8e ff e7 bd 37 8b a4 3d b3 ca f0 3d 29 b5 a4 bd
       -0.1132804 0.080343656 0.11757412 -0.08042366
000270 f3 96 07 3d 60 5d 9c 3d 29 0e 2c 3d b9 46 db bd
       0.03310294 0.07634997 0.04200569 -0.10706849
000280 e3 41 46 bd 5e fd 56 bd e0 52 8b bd f2 fe e1 bd
       -0.04840268 -0.052487724 -0.068029165 -0.11034955
000290 65 17 75 bc 11 cd b1 bc c4 b0 0c bb cc d6 4d 3d
       -0.014959191 -0.021704229 -0.0021467665 0.050253674
0002a0 36 1a e3 3c 28 de 00 3d dd 8e 23 be 00 84 90 bc
       0.02772246 0.031461865 -0.15972467 -0.017641068
0002b0 88 ed e4 3c e0 38 16 bd 7a 69 ed 3c a3 98 80 3c
       0.027945295 -0.036675334 0.02898096 0.015697783
0002c0 45 aa 3b 3d ee e3 82 3d c1 22 6a be 71 8d 17 3d
       0.04581668 0.063911304 -0.2286482 0.037000123
0002d0 50 05 e5 bc 20 20 b0 3d 93 44 53 3c 8a e9 23 be
       -0.027956635 0.08599877 0.012894767 -0.16007057
0002e0 cb b2 a1 bd da f6 cc 3d 9b ce f1 bd be ca 28 bc
       -0.0789543 0.10008021 -0.11806985 -0.010302244
0002f0 08 08 94 3d 2c 29 9c 3c ee 2a be bd 1c ff c3 3d
       0.07228094 0.019062601 -0.09285532 0.095701426
000300 dd f7 f6 3d 00 06 b4 39 e7 69 b1 bc 41 e4 ab bd
       0.12058995 0.00034336746 -0.021656943 -0.08393145
000310 f6 1d 98 bd 6b 33 02 bd c0 a8 6c 3d 28 23 b5 3d
       -0.074275896 -0.031787317 0.05777812 0.08844596
000320 ba ed da bd 33 4e e7 bd 78 05 84 bd 43 e5 11 b9
       -0.10689874 -0.11294212 -0.064463556 -0.00013913684
000330 ea 5d cf 3d d2 0f fb bd b2 0c b9 bd 48 b8 ac 3c
       0.101253346 -0.12258877 -0.090356246 0.021083966
000340 77 a2 2a bc aa 97 37 3c 72 cc 93 3d fb e5 46 3d
       -0.010414711 0.011205593 0.07216729 0.04855917
000350 2f 9c 24 bd 72 36 18 3d d0 38 15 bc d0 9a 2d 3d
       -0.04018801 0.037161298 -0.009107783 0.04238397
000360 5b bb 02 bd 43 a5 5d bd 08 b8 e3 bd 4e 1b 8c bd
       -0.031916957 -0.054112684 -0.111190856 -0.068411455
000370 b4 6b c1 bd 98 ff 9d 3c ae 1f 1c bd f9 f8 f7 bd
       -0.09444371 0.019286916 -0.03811615 -0.12108035
000380 0c 7d 93 3d 52 cc 3a 3d f5 7b e5 bd a8 40 cb bd
       0.07201585 0.04560501 -0.112052836 -0.099244416
000390 d7 08 09 bd dc ca 82 3d e5 d1 7a 3c c0 66 3f bd
       -0.033455696 0.063863486 0.015308832 -0.04672885
0003a0 85 68 ac 3c 48 fe 8a bc 0d 83 76 bd 88 3f 9e bc
       0.021045933 -0.016966954 -0.060183574 -0.019317403
0003b0 e4 73 8b bc 82 9f f0 3d ad c0 06 bd 90 90 d7 3d
       -0.017023034 0.11749174 -0.032898594 0.1052562
0003c0 64 39 43 bd 00 9b 02 ba fc 5f 0c be 48 ac 7a 3d
       -0.047662154 -0.0004982203 -0.1370849 0.061199456
0003d0 3a e4 dd bd d8 7f f3 3c 37 03 57 3d d4 c7 a6 3c
       -0.108345464 0.029724047 0.0524933 0.020358957
0003e0 d0 3f 0e 3d a8 fe fa 3d b3 12 e1 3d 8f 61 f6 bd
       0.034728825 0.12255603 0.10989895 -0.120303266
0003f0 ee 4d 89 bd 56 2b 96 bc 7a b9 93 bd 62 53 fe bd
       -0.06704317 -0.018331211 -0.07213111 -0.12418248

reflex_layer.2.bias f4 [4]
000000 74 dd a2 bd 55 96 2b be 64 1e d7 3d e1 f6 b7 3d
       -0.07952395 -0.16756566 0.105038434 0.08982635
