cricket_biomor.pth (torch, 63850 bytes, 14 tensors)

router_rnn.weight_ih f4 [192, 6]
0	0x3c743880	0.014906049
1	0x00000000	0.0
2	0x3e291847	0.16513167
3	0xbd526515	-0.05136593
4	0xbd8ca26a	-0.068669155
5	0x3dd93553	0.10605874
6	0x3a4ff825	0.00079334
7	0x00000000	0.0
8	0x3d3305bb	0.043706637
9	0xbcf8abe7	-0.030355407
10	0xbd2cd926	-0.042199276
11	0xbb711fcd	-0.0036792636
12	0xbcb5ccad	-0.022192324
13	0x00000000	0.0
14	0x3ea3721e	0.31923002
15	0xbdb3d527	-0.0878089
16	0xbe007b21	-0.1254697
17	0x3e1dfc8b	0.15428369
18	0x3b9e2b4d	0.004826939
19	0x00000000	0.0
20	0x3e2ae52f	0.16688989
21	0xbd2600b8	-0.04052803
22	0xbd8dfd64	-0.06933096
23	0x3de5d2c7	0.11221843
24	0xbb5dfaac	-0.0033871336
25	0x00000000	0.0
26	0x3e206be5	0.15666158
27	0xbc0d83f9	-0.008637422
28	0xbcc6eef6	-0.024283867
29	0x3d56e5d1	0.052465264
30	0xbad6f5ec	-0.0016400195
31	0x00000000	0.0
32	0x3ccdab54	0.02510611
33	0xbc9698e5	-0.018383453
34	0xbc93918b	-0.018013736
35	0x3bd90ca7	0.0066238227
36	0xbc52fba8	-0.012877382
37	0x00000000	0.0
38	0x3e0db73a	0.13839427
39	0x3cebd944	0.028790124
40	0xbb3fca64	-0.0029264921
41	0x3e4892a2	0.19587186
42	0xbd11d4e4	-0.03560342
43	0x00000000	0.0
44	0x3e07890a	0.1323587
45	0xbc97c560	-0.018526733
46	0xbd80289d	-0.06257746
47	0x3e3ee9df	0.18643902
48	0x3c831e24	0.016005583
49	0x00000000	0.0
50	0x3c2471e6	0.010036921
51	0xbd0e891a	-0.03479872
52	0xbd32c174	-0.043641523
53	0x3d1d1976	0.03835436
54	0xbe128d36	-0.1431168
55	0x00000000	0.0
56	0x3e8c5881	0.27411273
57	0xbd5142d8	-0.051089138
58	0xbdddcbbb	-0.10829874
59	0x3e164b4b	0.1467716
60	0xbd39f1d2	-0.045396633
61	0x00000000	0.0
62	0x3e74444c	0.23854178
63	0xbcd982a3	-0.02655155
64	0xbd5b26be	-0.053503744
65	0x3d92faf8	0.07176775
66	0xbbeb1192	-0.0071737254
67	0x00000000	0.0
68	0x3ea14422	0.31497294
69	0xbd40f23c	-0.047106013
70	0xbdaa7846	-0.083237216
71	0x3e0d624c	0.13807029
72	0x3cbb79ff	0.02288532
73	0x00000000	0.0
74	0x3de3a374	0.111151606
75	0xbcf025ab	-0.029314836
76	0xbd0c290a	-0.034218825
77	0x3cf02e1e	0.029318865
78	0xbd6cfc7b	-0.05785797
79	0x00000000	0.0
80	0x3e53aa3d	0.2067041
81	0xbbd274f0	-0.0064226314
82	0xbcb89553	-0.02253214
83	0x3da5a1d0	0.08087504
84	0xbcfe2afb	-0.031026354
85	0x00000000	0.0
86	0x3e6d04e1	0.23146392
87	0xbda38270	-0.07983863
88	0xbe029d59	-0.12755336
89	0x3e291454	0.16511661
90	0x3b8e767f	0.004347622
91	0x00000000	0.0
92	0x3dda6bc6	0.106650874
93	0xbce57fa7	-0.028014971
94	0xbd29de2f	-0.041471656
95	0x3d55e397	0.052219
96	0x3c5eeb9a	0.0136059765
97	0x00000000	0.0
98	0x3e1133b4	0.1417988
99	0xbd84ec24	-0.06490353
100	0xbda99bf9	-0.082817025
101	0x3db6b683	0.0892153
102	0xbaed267d	-0.0018093135
103	0x00000000	0.0
104	0x3bd02f82	0.0063533196
105	0x3c3e28a3	0.011606368
106	0x3b8016f2	0.0039089853
107	0x3cdf77e9	0.027278857
108	0xbcc1fe43	-0.023680812
109	0x00000000	0.0
110	0x3e122791	0.14272906
111	0x3b30c3ff	0.0026972292
112	0xbc23a59a	-0.009988213
113	0x3d217c0f	0.039424952
114	0x3c9c7cc7	0.019102467
115	0x00000000	0.0
116	0x3d5f9c6e	0.054592542
117	0xbd03b788	-0.03215745
118	0xbd089fe1	-0.033355597
119	0xbc8e174c	-0.017345093
120	0xbc1b3ab1	-0.009474442
121	0x00000000	0.0
122	0x3e55611f	0.2083783
123	0xbd25667a	-0.040380932
124	0xbd7b0ca9	-0.06129137
125	0x3d59c463	0.053165805
126	0x3c5248e7	0.012834764
127	0x00000000	0.0
128	0x3e153b13	0.14573316
129	0xbdbf0570	-0.09327209
130	0xbe07f9bf	-0.13278864
131	0x3e50c4e7	0.20387612
132	0xbc665a0f	-0.014059558
133	0x00000000	0.0
134	0x3e638767	0.2221962
135	0xbcc92a6d	-0.024556363
136	0xbd47370f	-0.048636492
137	0x3d8d91e4	0.06912592
138	0xbd5d1592	-0.05397565
139	0x00000000	0.0
140	0x3e879600	0.26481628
141	0xbd6974a9	-0.05699602
142	0xbdb594dd	-0.08866284
143	0x3da2e769	0.07954294
144	0xbbb95044	-0.0056553204
145	0x00000000	0.0
146	0x3e33cec9	0.17559351
147	0xbcbd730e	-0.023126151
148	0xbd2baa6c	-0.041910574
149	0x3dc7bdd9	0.097530074
150	0x3da05f90	0.07830727
151	0x00000000	0.0
152	0x3e91fe6c	0.2851442
153	0xbe8b6592	-0.2722593
154	0xbe89b888	-0.268986
155	0x3e7113c4	0.23542696
156	0xbcb9b481	-0.022669079
157	0x00000000	0.0
158	0x3e617791	0.22018267
159	0xbd87f12d	-0.066377975
160	0xbdd5714c	-0.10422
161	0x3dacf4ba	0.084451154
162	0xbce9591d	-0.028484875
163	0x00000000	0.0
164	0x3e1ce8ef	0.15323232
165	0x3d1aa033	0.037750434
166	0xbb8cb042	-0.0042934725
167	0x3e5ceaa1	0.21573879
168	0x3bcd110e	0.0062581366
169	0x00000000	0.0
170	0xbd6f2319	-0.05838308
171	0x3c273156	0.010204634
172	0x3c4f597d	0.012655613
173	0xbc185b1d	-0.009299067
174	0xbd7bf231	-0.06151027
175	0x00000000	0.0
176	0x3e8bc59f	0.2729921
177	0xbd9914de	-0.07474683
178	0xbdecf65b	-0.11570426
179	0x3e04c586	0.12965974
180	0xbcc259e1	-0.023724498
181	0x00000000	0.0
182	0x3ea7f911	0.3280721
183	0xbe052ae7	-0.13004647
184	0xbe2e2c4f	-0.1700909
185	0x3e3b3dd7	0.18285309
186	0x3c852af3	0.016255831
187	0x00000000	0.0
188	0x3e11b1d1	0.14227988
189	0xbd9a1d35	-0.07525102
190	0xbdb747a6	-0.08949213
191	0x3d8da9a8	0.06917125
192	0xbe18f4a5	-0.14937074
193	0x00000000	0.0
194	0x3d20d09d	0.03926145
195	0x3e484cbb	0.1956052
196	0x3e3d9a3f	0.18515871
197	0x3e230cf6	0.15922913
198	0xbd1ebf04	-0.038756385
199	0x00000000	0.0
200	0x3e9d37cf	0.3070664
201	0xbd43be04	-0.047788635
202	0xbdc5eb94	-0.096640736
203	0x3e1e95c5	0.1548682
204	0xbda30ba4	-0.07961205
205	0x00000000	0.0
206	0x3e81cca5	0.25351444
207	0xbd811555	-0.06302897
208	0xbde91f5b	-0.11382934
209	0x3de9efa1	0.11422659
210	0xba8594f0	-0.0010191482
211	0x00000000	0.0
212	0x3d2bd673	0.04195256
213	0xbc8b97ae	-0.0170401
214	0xbcdc6b98	-0.026906773
215	0x3a8937c2	0.0010468888
216	0x3ad57182	0.0016284438
217	0x00000000	0.0
218	0x3e3d91db	0.1851267
219	0xbd229dfa	-0.03970144
220	0xbd74a126	-0.059723996
221	0x3d7c4f2b	0.061598938
222	0x3c25062c	0.010072272
223	0x00000000	0.0
224	0x3df792df	0.1208856
225	0xbd29f2a7	-0.041491177
226	0xbd5fc5da	-0.054632045
227	0x3d955281	0.07291127
228	0xbdab0eae	-0.08352409
229	0x00000000	0.0
230	0x3e964b9d	0.29354563
231	0xbdbc4ef9	-0.0919475
232	0xbe0232d4	-0.12714702
233	0x3e07f7d0	0.13278127
234	0x3bd5be55	0.0065229335
235	0x00000000	0.0
236	0x3ea58f20	0.32335758
237	0xbe1078fd	-0.14108653
238	0xbe31d592	-0.17366627
239	0x3e3a8367	0.18214189
240	0x3c01e1a1	0.007927329
241	0x00000000	0.0
242	0xbb313280	-0.0027038157
243	0x39f6980a	0.00047034054
244	0x3a3dd0cb	0.00072408904
245	0x3c2fbe24	0.010726485
246	0x3d18a848	0.03726986
247	0x00000000	0.0
248	0x3df9d4e4	0.12198809
249	0xbd287ca9	-0.04113451
250	0xbd8daa9c	-0.06917307
251	0x3e12d88f	0.14340423
252	0xbb70b395	-0.0036728133
253	0x00000000	0.0
254	0x3d631f91	0.055450026
255	0xbc83d669	-0.01609345

router_rnn.weight_hh f4 [192, 64]
0	0x3dac5268	0.08414155
1	0x3c54eba3	0.012995633
2	0xbde26967	-0.1105526
3	0xbd7f7fdf	-0.062377807
4	0x3e21a1e6	0.15784416
5	0xbd4f19b1	-0.05056161
6	0x3c041ff1	0.008064256
7	0xbcdcc4f1	-0.026949378
8	0x3de0f30d	0.10983858
9	0x3d3e8d56	0.046521507
10	0xbdc27a83	-0.094960235
11	0xbd159469	-0.036518488
12	0xbd7261da	-0.05917535
13	0x3dc9ef24	0.098600656
14	0x3dbcf33f	0.09226083
15	0xbc82d299	-0.015969561
16	0x3c531ceb	0.012885313
17	0x3c47e59c	0.012200739
18	0x3d00df16	0.03146275
19	0x3dfeed32	0.12447585
20	0x3d94b613	0.072612904
21	0x3dddf564	0.1083782
22	0x3c46cbb2	0.012133526
23	0xbdd09811	-0.10185254
24	0x3cb5779f	0.022151766
25	0xbdac813c	-0.08423087
26	0x3e0d7cd0	0.13817143
27	0x3d9c8624	0.07642773
28	0x3e08f8e7	0.13376199
29	0x3d91b128	0.07113868
30	0x3db7fee6	0.08984165
31	0x3e30ef20	0.17278719
32	0x3dafd16d	0.08584867
33	0xbb36b3b0	-0.0027878098
34	0x3df644e0	0.120248556
35	0x3d295d2a	0.041348614
36	0x3dde3219	0.10849399
37	0x3da8f7e2	0.08250405
38	0xbcc4b0a6	-0.024010014
39	0x3d56bcd6	0.05242618
40	0x3e2ec23d	0.17066284
41	0xbd923144	-0.07138303
42	0x3de4dd4a	0.1117502
43	0x3cbfc6d0	0.02341023
44	0xbd7ea329	-0.06216732
45	0x3d09bc07	0.033626582
46	0xbce4a68c	-0.027911447
47	0x3e1ca514	0.15297347
48	0x3cb8e304	0.022569187
49	0x3865a315	5.4749737e-05
50	0x3c2a3833	0.0103893755
51	0xbdad2126	-0.08453588
52	0x3ce987ca	0.028507132
53	0x3e2d0ca0	0.16899347
54	0x3e164f85	0.14678772
55	0x3c921336	0.017831426
56	0x3e304af9	0.172161
57	0xbc747694	-0.014920849
58	0xbd6578f9	-0.05602357
59	0x3e22d11a	0.15900078
60	0xbd147697	-0.03624591
61	0x3e2c707f	0.16839789
62	0x3df515f3	0.11967077
63	0x3e6421cb	0.22278516
64	0xbd666b74	-0.05625482
65	0x3dc1cbff	0.09462737
66	0xbcc21607	-0.023692144
67	0xbddf3ab1	-0.10899866
68	0xbc801dd4	-0.015639223
69	0xbd976b51	-0.07393516
70	0xbde54a74	-0.111958414
71	0x3dce5d8f	0.10076439
72	0x3c66f0e4	0.014095519
73	0x3cd1490e	0.02554753
74	0x3c38ac79	0.011271589
75	0x3c8f01bd	0.017456884
76	0x3d9354e5	0.07193927
77	0x3c6f7990	0.014616385
78	0x3db75453	0.089516304
79	0xbd738a7d	-0.059458245
80	0x3c2d5895	0.010580202
81	0x3d912d82	0.07088758
82	0x3dbff276	0.09372418
83	0xbdae9c78	-0.08525938
84	0xbdbb12d5	-0.09134451
85	0xbd6e5cb8	-0.058193892
86	0xbdb4fc19	-0.08837146
87	0x3d082d32	0.033246227
88	0x3d010b63	0.031505
89	0xbdd3399f	-0.10313725
90	0xbd4eb04f	-0.05046111
91	0x3d81298e	0.06306754
92	0xbdc62749	-0.09675462
93	0xb9a84928	-0.00032097963
94	0xbdbb5db0	-0.09148729
95	0x3da47693	0.08030429
96	0xbc281312	-0.010258453
97	0xbdd60b39	-0.10451359
98	0x3d9dafc2	0.07699539
99	0x3c7bc409	0.015366563
100	0xbb980b4d	-0.004640019
101	0xbe0ae78b	-0.13564889
102	0x3b68f6ec	0.0035547568
103	0xbe0541e0	-0.1301341
104	0x3dbc8747	0.092054896
105	0x3d78bfce	0.060729794
106	0xbe06568c	-0.13118953
107	0xbc234179	-0.00996434
108	0xbdc0d6e6	-0.094159886
109	0xbd4822a6	-0.04886117
110	0xbd8b48f4	-0.06801024
111	0x3c841bc0	0.016126513
112	0x3d813e23	0.0631068
113	0xbcb4f10a	-0.022087593
114	0x3d83b9d6	0.0643193
115	0x3d1d43a4	0.038394585
116	0xbde9533d	-0.113928296
117	0x3db02033	0.085998915
118	0x3df60d48	0.12014252
119	0xbdafced1	-0.08584369
120	0x3ba21e71	0.0049474766
121	0xbdeb29d4	-0.114825875
122	0x3c48345b	0.012219514
123	0xbd51bf98	-0.05120811
124	0xbd9d5337	-0.076818876
125	0xbd07b697	-0.033133116
126	0x3d39c681	0.045355324
127	0xbcb30a14	-0.021855392
128	0x3c7c21a9	0.015388885
129	0x3e1f1537	0.15535437
130	0xbdd1a909	-0.10237319
131	0xbd5b0f6a	-0.053481497
132	0x3d9bdea1	0.076108225
133	0x3e49ff5d	0.1972632
134	0x3d2773ce	0.040881924
135	0x3e1eb348	0.15498078
136	0x3e46f3dd	0.19428964
137	0xbd5cc4c2	-0.05389858
138	0x3d8d622c	0.069034904
139	0x3bba1ee3	0.0056799515
140	0x3e06c8ea	0.1316258
141	0x3e06a9ad	0.13150664
142	0x3dba638a	0.09101017
143	0x3c9ba64d	0.019000197
144	0x3d8e02df	0.06934141
145	0x3cca18e8	0.02467008
146	0xbb7df276	-0.0038749254
147	0x3e66551f	0.22493409
148	0x3e16652b	0.1468703
149	0x3e26edc7	0.16301642
150	0x3e4d2443	0.20033364
151	0x3d7ba421	0.061435822
152	0x3da1ece5	0.07906512
153	0xbe107dee	-0.14110538
154	0x3dc1d28c	0.09463987
155	0x3e0dedb3	0.13860206
156	0x3d7aba30	0.06121272
157	0x3e10bd17	0.14134632
158	0xbd3efc23	-0.046627175
159	0x3e3c4812	0.18386868
160	0x3de5d09c	0.1122143
161	0xbd366008	-0.044525176
162	0x3e027b44	0.12742335
163	0x3e0da22b	0.13831393
164	0x3db0b628	0.086284935
165	0xbc97a49b	-0.018511107
166	0xbdd158cc	-0.10222015
167	0x3dc6c3d5	0.09705321
168	0x3cf1f370	0.029535025
169	0xbd56ffc1	-0.05249
170	0x3d6b5abb	0.057459574
171	0x3e2e4500	0.17018509
172	0x3e3edb6c	0.1863839
173	0x3ce9e7bb	0.02855288
174	0x3dfba2d7	0.122869186
175	0x3dc6c36b	0.09705242
176	0xbd2107b4	-0.039313987
177	0x3e10e4cc	0.14149779
178	0x3dd54686	0.10413842
179	0x3e2b27fc	0.16714472
180	0xbbde3578	-0.0067812763
181	0x3e6d1e00	0.23155975
182	0x3e6155a9	0.22005333
183	0x3dd16be9	0.1022566
184	0x3d4f7773	0.050651025
185	0xbd8d0874	-0.06886378
186	0x3e735132	0.23761442
187	0x3dd8f142	0.10592891
188	0xbc5cb278	-0.013470285
189	0x3e747a99	0.23874892
190	0x3e0ef7e2	0.13961747
191	0x3e7e475e	0.24831912
192	0xbce604bf	-0.028078435
193	0x3dc7d840	0.09758043
194	0xbd59fa01	-0.053216938
195	0x3c84f434	0.016229726
196	0x3e055395	0.13020165
197	0x3e2a0ee6	0.16607246
198	0xbd00bf57	-0.031432476
199	0x3dd59fdb	0.10430881
200	0xbd9e60e0	-0.07733321
201	0x3ca8e054	0.02061478
202	0xbda05eeb	-0.07830604
203	0x3db0c578	0.08631414
204	0x3e2b1815	0.16708405
205	0xbcde1653	-0.027110254
206	0x3e08c70e	0.13357183
207	0x3e25ed72	0.1620386
208	0x3c65ccae	0.01402585
209	0x3dce05e5	0.10059718
210	0xbda68ff2	-0.08132924
211	0xbd817731	-0.06321562
212	0x3dab69ea	0.08369811
213	0x3cc1be5c	0.02365034
214	0x3db14111	0.086549886
215	0xbd7d2f53	-0.06181271
216	0xbd48e903	-0.049050342
217	0xbe06e249	-0.13172258
218	0x3cfb2371	0.030656548
219	0x3e15ee2f	0.14641641
220	0xbd241ab9	-0.040064547
221	0xbd4a1b32	-0.04934234
222	0x3abb2ae3	0.0014279749
223	0x3e0763c8	0.13221657
224	0xbc4b8a41	-0.012423099
225	0xbd50d238	-0.05098173
226	0x3d5e72c3	0.054308664
227	0xb8fcd287	-0.0001205551
228	0xbd4ceb37	-0.050029006
229	0xbc9f017f	-0.019409893
230	0x3d14583b	0.036216956
231	0xbddc07b0	-0.10743654
232	0x3df13d28	0.11779243
233	0x3e107f25	0.14111002
234	0xbd8c2576	-0.068430826
235	0x3dc5d830	0.09660375
236	0xbd191d82	-0.037381656
237	0xbd788173	-0.060670327
238	0x3dfee6da	0.12446375
239	0xbc1e3173	-0.009655344
240	0x3c244514	0.010026235
241	0x3cda4f93	0.026649272
242	0xbd0dfa45	-0.034662504
243	0x3e0d0bac	0.13773984
244	0x3d771077	0.060318436
245	0xbd12e186	-0.035859607
246	0x3cd697ed	0.02619549
247	0x3d8bb75e	0.06822084
248	0x3a2fd30b	0.0006707168
249	0xbad79833	-0.0016448557
250	0x3e05c951	0.13065077
251	0x3a403c36	0.0007333191
252	0x3d8c8722	0.06861712
253	0x3e355727	0.17709027
254	0xbce41d34	-0.027845956
255	0x3e292147	0.165166

router_rnn.bias_ih f4 [192]
0	0xc038d88b	-2.8882167
1	0xc03e07e0	-2.9692307
2	0xc03438c2	-2.8159642
3	0xc0373b86	-2.863008
4	0xc03bfa1a	-2.93714
5	0xc03f9c81	-2.9939272
6	0xc032dc28	-2.7946873
7	0xc03329fa	-2.799437
8	0xc03da43c	-2.963149
9	0xc035712b	-2.8350322
10	0xc03a5665	-2.911523
11	0xc035b70e	-2.8392978
12	0xc03d0dff	-2.9539793
13	0xc03a0326	-2.9064422
14	0xc03342bf	-2.8009489
15	0xc03bf5df	-2.9368818
16	0xc03893fa	-2.8840318
17	0xc03e39d7	-2.9722803
18	0xc03d78fd	-2.9605095
19	0xc0408a45	-3.0084393
20	0xc03aa257	-2.9161584
21	0xc031be6d	-2.7772477
22	0xc03ace5e	-2.9188457
23	0xc039e6b5	-2.9047062
24	0xc038f4f7	-2.8899515
25	0xc02f05db	-2.7347324
26	0xc0396e71	-2.8973658
27	0xc03164bc	-2.7717733
28	0xc040b927	-3.0113008
29	0xc036aca7	-2.8542879
30	0xc0335481	-2.8020327
31	0xc03a524a	-2.9112725
32	0xc038ffa3	-2.8906028
33	0xc0358db7	-2.8367746
34	0xc036ecfd	-2.8582146
35	0xc03f8b35	-2.9928715
36	0xc039c358	-2.9025478
37	0xc03a274a	-2.908648
38	0xc0365cd7	-2.8494165
39	0xc032c29b	-2.7931278
40	0xc03f16c5	-2.9857647
41	0xc036efac	-2.8583784
42	0xc03f4f83	-2.989228
43	0xc038c327	-2.8869112
44	0xc03edda2	-2.9822774
45	0xc038549e	-2.8801646
46	0xc03d2d47	-2.9558885
47	0xc03be6f5	-2.9359715
48	0xc04080f1	-3.00787
49	0xc0310999	-2.7662108
50	0xc03fe34d	-2.9982483
51	0xc03d02a8	-2.9532871
52	0xc03b32b8	-2.9249706
53	0xc03b074e	-2.9223208
54	0xc03a7720	-2.9135208
55	0xc033b3e3	-2.8078544
56	0xc031d594	-2.7786608
57	0xc035e930	-2.8423576
58	0xc0333ab1	-2.8004572
59	0xc03fe3ea	-2.9982858
60	0xc036ae15	-2.8543751
61	0xc038a679	-2.8851607
62	0xc03fe19e	-2.9981456
63	0xc03acf0a	-2.9188867
64	0x4005fc19	2.0935118
65	0x4004b6d3	2.0736587
66	0x3ff9cb92	1.951525
67	0x3ffb3916	1.9626796
68	0x40053dc6	2.0818954
69	0x3ffe39ec	1.9861426
70	0x40063dbf	2.0975187
71	0x400725cc	2.111682
72	0x3ffb1bf0	1.9617901
73	0x3ff96450	1.9483738
74	0x3ff91fe4	1.9462857
75	0x3ff99d7d	1.9501187
76	0x40055fe8	2.0839787
77	0x3ff930ed	1.9468056
78	0x4005edd5	2.092641
79	0x4005fd0f	2.0935705
80	0x40052fe2	2.0810475
81	0x3ff9f192	1.9526846
82	0x3fffc91a	1.9983246
83	0x40049194	2.0713854
84	0x4005bda0	2.0896988
85	0x4005d658	2.0912075
86	0x400600cc	2.0937986
87	0x3ff99ef6	1.9501636
88	0x3ff96437	1.9483708
89	0x3ffaccaa	1.9593709
90	0x3ff9a857	1.9504498
91	0x40062102	2.0957646
92	0x4002fc26	2.04664
93	0x3ff9cd7f	1.9515837
94	0x3ff96d00	1.9486389
95	0x40056f6b	2.0849254
96	0x3ffb6216	1.9639308
97	0x3ff8dca1	1.9442331
98	0x3ffa3d1d	1.95499
99	0x4002029e	2.0314097
100	0x40058342	2.0861363
101	0x3ffab760	1.9587212
102	0x3ff984c6	1.9493644
103	0x3ff9b990	1.9509754
104	0x4005795c	2.0855322
105	0x3ffc3282	1.9702914
106	0x4002d813	2.0444381
107	0x3ff99f09	1.9501659
108	0x3ff9c206	1.9512336
109	0x4005cd48	2.0906544
110	0x3ffa5894	1.9558282
111	0x3ff8088d	1.937761
112	0x3ff9f2e8	1.9527254
113	0x400627c9	2.0961783
114	0x40031f47	2.048784
115	0x3ff8ca3f	1.9436721
116	0x4005a508	2.0881977
117	0x4005d826	2.0913177
118	0x4003c4af	2.0588796
119	0x40064542	2.0979772
120	0x4005b1b4	2.0889711
121	0x3ff888ec	1.9416785
122	0x40055d91	2.0838358
123	0x3ffb1647	1.9616174
124	0x3ffb0370	1.9610424
125	0x3ffa50f8	1.955596
126	0x40040b86	2.0632033
127	0x4002a4fd	2.04132
128	0x3db8db15	0.090261616
129	0x3d89856c	0.06714901
130	0xbdd4a0a2	-0.10382201
131	0xbde4e06e	-0.11175619
132	0x3d91f501	0.07126809
133	0xbd1864f8	-0.037205666
134	0x3d9b1658	0.07572621
135	0x3da6fd55	0.08153788
136	0xbd962ca1	-0.07332731
137	0xbde9436f	-0.11389815
138	0xbdf641e3	-0.12024286
139	0xbde57d38	-0.11205524
140	0x3d7b23b1	0.061313335
141	0xbdddd86e	-0.10832296
142	0x3dc0c4a6	0.09412508
143	0x3dbbb38f	0.091651075
144	0x3da97bfe	0.08275603
145	0xbd8a88fd	-0.0676441
146	0xbd596c57	-0.053081837
147	0x3d43058e	0.04761272
148	0x3d928d36	0.0715584
149	0x3da37da0	0.079829454
150	0x3dafa064	0.08575514
151	0xbdf70317	-0.12061136
152	0xbe09b3e2	-0.13447526
153	0xbdd493d1	-0.10379756
154	0xbdcbfefe	-0.09960745
155	0x3db9576b	0.09049877
156	0xba2abdaa	-0.00065132475
157	0xbde428ab	-0.11140569
158	0xbde12a9c	-0.10994455
159	0x3dace858	0.084427536
160	0xbd513a1e	-0.051080815
161	0xbe12a97d	-0.14322467
162	0xbdd51426	-0.10404234
163	0x3cf52582	0.029925112
164	0x3d918858	0.07106084
165	0xbdea8af1	-0.11452282
166	0xbdfac289	-0.12244136
167	0xbde2d01a	-0.110748485
168	0x3dc12f8d	0.09432898
169	0xbd968b27	-0.0735076
170	0x3c4d85a1	0.012544067
171	0xbdba72a4	-0.09103897
172	0xbd91ea40	-0.07124758
173	0x3d9e2d1f	0.0772345
174	0xbdbcaa00	-0.092121124
175	0xbdaa8bb9	-0.08327431
176	0xbe0f7700	-0.14010239
177	0x3daa0dbc	0.08303401
178	0x3d0a33e4	0.033740893
179	0xbdcccdc0	-0.10000181
180	0x3da621cd	0.08111916
181	0x3d9b6360	0.07587314
182	0x3d3185df	0.04334056
183	0x3dbbd925	0.091722764
184	0x3db3dda1	0.08782507
185	0xbdff2837	-0.12458842
186	0x3dadbea2	0.08483626
187	0xbd821402	-0.063514724
188	0xbdc7449d	-0.09729884
189	0xbdd3e3f2	-0.103462115
190	0x3d42540c	0.047443435
191	0x3df83361	0.12119175

router_rnn.bias_hh f4 [192]
0	0xc038d88b	-2.8882167
1	0xc03e07e0	-2.9692307
2	0xc03438c2	-2.8159642
3	0xc0373b86	-2.863008
4	0xc03bfa1a	-2.93714
5	0xc03f9c81	-2.9939272
6	0xc032dc28	-2.7946873
7	0xc03329fa	-2.799437
8	0xc03da43c	-2.963149
9	0xc035712b	-2.8350322
10	0xc03a5665	-2.911523
11	0xc035b70e	-2.8392978
12	0xc03d0dff	-2.9539793
13	0xc03a0326	-2.9064422
14	0xc03342bf	-2.8009489
15	0xc03bf5df	-2.9368818
16	0xc03893fa	-2.8840318
17	0xc03e39d7	-2.9722803
18	0xc03d78fd	-2.9605095
19	0xc0408a45	-3.0084393
20	0xc03aa257	-2.9161584
21	0xc031be6d	-2.7772477
22	0xc03ace5e	-2.9188457
23	0xc039e6b5	-2.9047062
24	0xc038f4f7	-2.8899515
25	0xc02f05db	-2.7347324
26	0xc0396e71	-2.8973658
27	0xc03164bc	-2.7717733
28	0xc040b927	-3.0113008
29	0xc036aca7	-2.8542879
30	0xc0335481	-2.8020327
31	0xc03a524a	-2.9112725
32	0xc038ffa3	-2.8906028
33	0xc0358db7	-2.8367746
34	0xc036ecfd	-2.8582146
35	0xc03f8b35	-2.9928715
36	0xc039c358	-2.9025478
37	0xc03a274a	-2.908648
38	0xc0365cd7	-2.8494165
39	0xc032c29b	-2.7931278
40	0xc03f16c5	-2.9857647
41	0xc036efac	-2.8583784
42	0xc03f4f83	-2.989228
43	0xc038c327	-2.8869112
44	0xc03edda2	-2.9822774
45	0xc038549e	-2.8801646
46	0xc03d2d47	-2.9558885
47	0xc03be6f5	-2.9359715
48	0xc04080f1	-3.00787
49	0xc0310999	-2.7662108
50	0xc03fe34d	-2.9982483
51	0xc03d02a8	-2.9532871
52	0xc03b32b8	-2.9249706
53	0xc03b074e	-2.9223208
54	0xc03a7720	-2.9135208
55	0xc033b3e3	-2.8078544
56	0xc031d594	-2.7786608
57	0xc035e930	-2.8423576
58	0xc0333ab1	-2.8004572
59	0xc03fe3ea	-2.9982858
60	0xc036ae15	-2.8543751
61	0xc038a679	-2.8851607
62	0xc03fe19e	-2.9981456
63	0xc03acf0a	-2.9188867
64	0x4005fc19	2.0935118
65	0x4004b6d3	2.0736587
66	0x3ff9cb92	1.951525
67	0x3ffb3916	1.9626796
68	0x40053dc6	2.0818954
69	0x3ffe39ec	1.9861426
70	0x40063dbf	2.0975187
71	0x400725cc	2.111682
72	0x3ffb1bf0	1.9617901
73	0x3ff96450	1.9483738
74	0x3ff91fe4	1.9462857
75	0x3ff99d7d	1.9501187
76	0x40055fe8	2.0839787
77	0x3ff930ed	1.9468056
78	0x4005edd5	2.092641
79	0x4005fd0f	2.0935705
80	0x40052fe2	2.0810475
81	0x3ff9f192	1.9526846
82	0x3fffc91a	1.9983246
83	0x40049194	2.0713854
84	0x4005bda0	2.0896988
85	0x4005d658	2.0912075
86	0x400600cc	2.0937986
87	0x3ff99ef6	1.9501636
88	0x3ff96437	1.9483708
89	0x3ffaccaa	1.9593709
90	0x3ff9a857	1.9504498
91	0x40062102	2.0957646
92	0x4002fc26	2.04664
93	0x3ff9cd7f	1.9515837
94	0x3ff96d00	1.9486389
95	0x40056f6b	2.0849254
96	0x3ffb6216	1.9639308
97	0x3ff8dca1	1.9442331
98	0x3ffa3d1d	1.95499
99	0x4002029e	2.0314097
100	0x40058342	2.0861363
101	0x3ffab760	1.9587212
102	0x3ff984c6	1.9493644
103	0x3ff9b990	1.9509754
104	0x4005795c	2.0855322
105	0x3ffc3282	1.9702914
106	0x4002d813	2.0444381
107	0x3ff99f09	1.9501659
108	0x3ff9c206	1.9512336
109	0x4005cd48	2.0906544
110	0x3ffa5894	1.9558282
111	0x3ff8088d	1.937761
112	0x3ff9f2e8	1.9527254
113	0x400627c9	2.0961783
114	0x40031f47	2.048784
115	0x3ff8ca3f	1.9436721
116	0x4005a508	2.0881977
117	0x4005d826	2.0913177
118	0x4003c4af	2.0588796
119	0x40064542	2.0979772
120	0x4005b1b4	2.0889711
121	0x3ff888ec	1.9416785
122	0x40055d91	2.0838358
123	0x3ffb1647	1.9616174
124	0x3ffb0370	1.9610424
125	0x3ffa50f8	1.955596
126	0x40040b86	2.0632033
127	0x4002a4fd	2.04132
128	0x3dd801ac	0.10547194
129	0x3d91725d	0.07101891
130	0xbe3f6a65	-0.1869293
131	0xbe159bd6	-0.14610228
132	0x3d9e88e8	0.077409565
133	0xbc823aec	-0.015897237
134	0x3e27bb8b	0.16380136
135	0x3e1fbcaa	0.15599313
136	0xbda0238e	-0.078192815
137	0xbe3db46e	-0.1852586
138	0xbdf125d1	-0.11774791
139	0xbe4317eb	-0.19052093
140	0x3d81e0ef	0.06341731
141	0xbde77715	-0.1130201
142	0x3e2c5a5d	0.16831346
143	0x3dc2da0a	0.09514244
144	0x3dd3df8b	0.10345372
145	0xbd8748ee	-0.06605707
146	0xbd37f468	-0.04491082
147	0x3d394b1b	0.04523764
148	0x3db7d096	0.089753315
149	0x3e2fff3c	0.17187208
150	0x3de1b482	0.11020757
151	0xbe0e4cb9	-0.13896455
152	0xbe198fee	-0.14996311
153	0xbe7be53d	-0.24599166
154	0xbe096e5c	-0.13421005
155	0x3e4922a8	0.19642127
156	0xbc0b6121	-0.008507044
157	0xbe22ff84	-0.15917784
158	0xbe43d283	-0.19123273
159	0x3dc234bd	0.09482715
160	0xbdeaba5f	-0.11461329
161	0xbe4ae4bf	-0.19813822
162	0xbe310939	-0.17288674
163	0x3ce8db18	0.028424785
164	0x3dbd5044	0.09243825
165	0xbdff34f8	-0.12461275
166	0xbe378139	-0.17920388
167	0xbe330e34	-0.17485887
168	0x3dbb7bbc	0.0915446
169	0xbdfd9023	-0.123810075
170	0xbb10a2a1	-0.002206959
171	0xbe15a2dd	-0.14612909
172	0xbd92b9cb	-0.071643434
173	0x3df90c3a	0.12160535
174	0xbd9ceafa	-0.07662006
175	0xbdb1e125	-0.08685521
176	0xbdcf76ff	-0.101301186
177	0x3e36b546	0.17842588
178	0x3d3d7e8b	0.04626326
179	0xbda309db	-0.07960864
180	0x3dc262db	0.094915114
181	0x3db248c9	0.08705289
182	0xbc89bb83	-0.016813045
183	0x3e376bc9	0.1791221
184	0x3e3a5e08	0.18199933
185	0xbe3a7cee	-0.1821172
186	0x3dec7afe	0.115468964
187	0xbdbbed67	-0.0917614
188	0xbe131797	-0.14364468
189	0xbe0424ce	-0.12904665
190	0x3d34cd76	0.044141255
191	0xba9361bb	-0.0011244336

gain_gate.weight f4 [2, 64]
0	0xbda83d39	-0.08214802
1	0x3db58b48	0.088644564
2	0xbd1600ee	-0.03662198
3	0x3e0a600e	0.13513204
4	0xbdb25dde	-0.0870931
5	0x3cdf231f	0.027238427
6	0x3cdfbeb6	0.027312618
7	0x3c5427ff	0.012948989
8	0xbbcebe38	-0.006309297
9	0xbcdde4ce	-0.027086642
10	0xbde901f5	-0.113773264
11	0xbdca2035	-0.09869424
12	0xbdc08981	-0.09401227
13	0xbb1616ad	-0.00229017
14	0xbdc6a2e5	-0.096990384
15	0x3e024c0b	0.1272432
16	0xbdcfa700	-0.101392746
17	0x3da7a869	0.081864186
18	0x3db89d35	0.0901436
19	0xbc20b268	-0.00980816
20	0xbd0f15b4	-0.034932807
21	0xbd2b7b3c	-0.041865572
22	0xbc766cfc	-0.015040632
23	0xbde1d4e8	-0.11026937
24	0x3d2a61f8	0.041597337
25	0x3d4e65c0	0.050390005
26	0x3de977da	0.11399813
27	0xbcad7f4b	-0.021178862
28	0x3ce35334	0.027749635
29	0x3d9b7c60	0.07592082
30	0x3d240b54	0.040049866
31	0x3de8f608	0.11375052
32	0x3d95e99d	0.07319949
33	0xbd0edf73	-0.034881067
34	0xbcdc1a8f	-0.026868133
35	0xbce631a4	-0.028099842
36	0x3d92239f	0.071357004
37	0x3dc04471	0.09388054
38	0x3c0147f9	0.007890695
39	0x3df1f94a	0.11815126
40	0xbd4075f7	-0.0469875
41	0x3d540de7	0.05177107
42	0xbd266f31	-0.040633384
43	0xba44996a	-0.0007499667
44	0x3d180eb9	0.037123416
45	0xbde0767f	-0.10960101
46	0x3e065c80	0.13121223
47	0xbc4ca211	-0.0124898115
48	0x3dc22720	0.09480119
49	0x3d3cd192	0.0460983
50	0xbc90bf9f	-0.017669497
51	0x3d596232	0.053072162
52	0xbdadb485	-0.08481697
53	0x3d5c31d0	0.053758442
54	0xbdc7f4f0	-0.09763515
55	0xbc79bde5	-0.015243028
56	0xbddb03eb	-0.10694107
57	0xbd64bcce	-0.05584412
58	0x3b0b692e	0.0021272409
59	0x3ba4036a	0.00500529
60	0xbd60ee1e	-0.054914586
61	0x3d6d8352	0.057986565
62	0xbdac1914	-0.08403221
63	0xbd99a2cb	-0.075017534
64	0x3aea3480	0.001786843
65	0xbd213224	-0.03935446
66	0x3dc8a372	0.097968
67	0xbccace20	-0.024756491
68	0xbce3b8a8	-0.027798012
69	0x3d159618	0.036520094
70	0xbdb37c4c	-0.08763942
71	0xbaa36700	-0.001246661
72	0xbc99a3b8	-0.018754825
73	0x3d9b3984	0.075793296
74	0xbce00240	-0.027344823
75	0x3dd57710	0.104231
76	0xbc832ff8	-0.016014084
77	0xbc3a3cd0	-0.011367038
78	0xbc7cad10	-0.015422121
79	0xbd2abb74	-0.041682675
80	0x3b22a800	0.0024819374
81	0x3cd059d0	0.025433451
82	0x3db37214	0.08761993
83	0xbba71ee0	-0.005100116
84	0x3da962ba	0.08270784
85	0x3d2d4108	0.042298347
86	0xbc84a460	-0.016191661
87	0x3d96bd72	0.073603526
88	0x3d16da74	0.036829427
89	0xbce144d0	-0.027498633
90	0x3df49ae8	0.119436085
91	0xbcbf5800	-0.023357391
92	0x3d932bdc	0.071861
93	0xbdc61422	-0.09671809
94	0x3daccaa8	0.08437091
95	0x3df8b41e	0.121437296
96	0x3dbf0f4c	0.093290895
97	0x3daf0084	0.0854502
98	0x3c86caf8	0.016454205
99	0x3c91cc98	0.017797753
100	0xbd939e94	-0.07207981
101	0xbdc0694c	-0.09395084
102	0xbc04fdc0	-0.008117139
103	0x3d63dbf4	0.055629686
104	0x3d3c0868	0.045906454
105	0xbdafb236	-0.08578913
106	0x3d2e45e4	0.04254712
107	0x3d77736c	0.06041281
108	0xbdb8f86e	-0.09031759
109	0xbdcb840e	-0.09937297
110	0x3de8e4e2	0.11371781
111	0x3db504c2	0.08838798
112	0x3ddd76b2	0.10813655
113	0x3ddebe78	0.10876173
114	0xbd82406a	-0.06359942
115	0x3cc86f90	0.02446726
116	0x3c39ebd0	0.011347726
117	0x3daa2032	0.08306922
118	0x3d9d39e0	0.076770544
119	0x3d815efa	0.063169435
120	0x3de02a86	0.10945611
121	0xbb8b6640	-0.0042541325
122	0xbd9221be	-0.07135342
123	0x3dcd1584	0.100138694
124	0xbd705814	-0.058677748
125	0x3d82e336	0.06390993
126	0x3d99a394	0.07501903
127	0x3c732000	0.014839172

gain_gate.bias f4 [2]
0	0x3d97950f	0.074014775
1	0x3ddabb82	0.106802955

bias_gate.weight f4 [4, 64]
0	0xbd9d270d	-0.07673464
1	0xbd0623c7	-0.032748964
2	0x3e31580e	0.17318746
3	0x3ddc4bc9	0.10756642
4	0xbd0a0c37	-0.033703055
5	0x3cf09dc6	0.029372107
6	0xbdb02f1a	-0.08602734
7	0xbde89934	-0.11357346
8	0x3d9602df	0.07324766
9	0x3e150d5b	0.14555876
10	0x3df4a4fa	0.11945529
11	0x3e240baf	0.16020082
12	0xbcf242d5	-0.029572884
13	0x3e012494	0.1261161
14	0xbd557aa4	-0.052118912
15	0xbda98531	-0.08277357
16	0xbd339a60	-0.043848395
17	0x3d66c8b6	0.056343757
18	0x3d077185	0.033067245
19	0xbd10d535	-0.03535958
20	0xbd4c48ef	-0.049874242
21	0xbddcbad3	-0.107778214
22	0xbd76ada4	-0.06022419
23	0x3e292351	0.16517378
24	0x3ded26ea	0.11579688
25	0x3e49b5cb	0.19698255
26	0x3e3347e4	0.17507893
27	0xbce2dfd6	-0.027694624
28	0x3d1f4001	0.0388794
29	0x3e032e42	0.12810615
30	0x3e1c94b4	0.152911
31	0xbdd6ca26	-0.104877755
32	0xbd89baee	-0.06725107
33	0x3dec06e6	0.11524753
34	0x3e338954	0.17532855
35	0x3c1e6d9d	0.0096696885
36	0xbd942592	-0.072337285
37	0x3dd38139	0.10327382
38	0x3e0b3114	0.1359294
39	0x3e0f105c	0.13971084
40	0xbd604e31	-0.05476207
41	0x3da928d5	0.08259741
42	0x3ce343eb	0.027742347
43	0xbd284832	-0.041084476
44	0x3d2fe991	0.042947356
45	0xbcfcf7a6	-0.030879807
46	0x3d9813e1	0.074256666
47	0x3d08644c	0.033298776
48	0x3db83832	0.089950934
49	0xbde1bd93	-0.110224865
50	0xbbcabb3e	-0.006186872
51	0x3d89215a	0.066958144
52	0xbd946c5c	-0.072472304
53	0xbd043077	-0.032272782
54	0xbd40f6d1	-0.047110382
55	0xbdd899cc	-0.105762094
56	0xbd92b538	-0.07163471
57	0x3e14a003	0.14514165
58	0xbdbaf02f	-0.09127843
59	0x3d95e962	0.07319905
60	0x3e22b5ea	0.15889707
61	0x3b5f0b83	0.003403396
62	0xbcf6bcf3	-0.030119395
63	0xbe11a26b	-0.14222114
64	0x3daa6064	0.08319166
65	0x3dc1fd34	0.09472123
66	0x3dd2d64f	0.10294782
67	0xbcd4ec78	-0.025991663
68	0x3ce52aa9	0.027974444
69	0x3e09ae0b	0.13445298
70	0xbd6e4669	-0.058172617
71	0xbd94a55f	-0.072581045
72	0xbbd2d16f	-0.006433658
73	0x3e583836	0.21115193
74	0x3e097c0d	0.13426228
75	0x3e161eff	0.14660262
76	0x3da3362f	0.07969319
77	0x3e48a527	0.1959425
78	0xbc147632	-0.009061383
79	0x3d313d75	0.0432715
80	0x3d5cb6c0	0.05388522
81	0x3bcb8431	0.006210827
82	0x3e06dea0	0.13170862
83	0x3e310684	0.17287642
84	0x3d3d64ec	0.046238825
85	0x3cd46407	0.025926603
86	0x3cb93ec6	0.02261294
87	0x3e27d110	0.16388345
88	0x3dd87852	0.10569824
89	0x3d6cc65d	0.05780636
90	0x3dc6afc4	0.097014934
91	0xbdb3edd9	-0.087856
92	0xbd0d1dec	-0.034452364
93	0x3dc9cce4	0.09853533
94	0x3d9697cd	0.073531725
95	0x3de85a28	0.11345321
96	0x3e6dbb55	0.23215993
97	0x3db833cb	0.08994254
98	0x3e2f4f82	0.17120174
99	0x3d550e7b	0.052015763
100	0x3dcad90d	0.099046804
101	0xbae95b91	-0.0017803778
102	0x3e136a0e	0.14395925
103	0x3d454392	0.048160143
104	0xba8d47c5	-0.0010778835
105	0x3b6963ed	0.003561254
106	0xbac64086	-0.0015125431
107	0x3e878e74	0.2647587
108	0x3defbd26	0.11705999
109	0xbd7e5c2f	-0.062099632
110	0x3d2d3e06	0.04229548
111	0x3e35d406	0.17756662
112	0x3d31f6cd	0.04344826
113	0xbb6a6187	-0.0035763697
114	0x3df36c9a	0.118859485
115	0x3dfb9118	0.12283534
116	0x3cefbbd6	0.029264372
117	0xbd4f2927	-0.050576355
118	0x3dad6393	0.08466258
119	0xbda13cb4	-0.07872906
120	0xbd016036	-0.031585895
121	0x3daa5927	0.08317786
122	0x3e062544	0.13100153
123	0xbd166c0e	-0.036724143
124	0xbbc28a7f	-0.00593692
125	0x3e83bf75	0.25732008
126	0x3e1f6643	0.15566353
127	0x3e37c5c7	0.1794654
128	0x3d1c304a	0.03813199
129	0xbb6219b7	-0.003450019
130	0x3daabcec	0.08336815
131	0xbd78c48e	-0.060734324
132	0xbdda72a3	-0.106663965
133	0xbdb57f6b	-0.08862194
134	0xbe0e6957	-0.13907371
135	0xbda6cd2c	-0.08144602
136	0x3ca65023	0.020301884
137	0x3d573b49	0.052546773
138	0xbd855fbb	-0.065124
139	0x3b928ed2	0.004472592
140	0xbe08c0c9	-0.13354792
141	0x3d977f00	0.0739727
142	0x3d605ce4	0.054776087
143	0x3dc285cd	0.09498177
144	0x3c26c6e9	0.01017926
145	0xbcdb513f	-0.02677214
146	0xbc3d5acb	-0.011557291
147	0xbd6d6b75	-0.057963807
148	0xbe0a908b	-0.13531701
149	0xbdb17594	-0.086650044
150	0x3ba5c243	0.005058558
151	0xbe01e288	-0.12684071
152	0xbdc71059	-0.09719915
153	0xbe03af13	-0.12859754
154	0x3cc14fd8	0.023597643
155	0x3ca4f637	0.020136936
156	0x3d284008	0.04107669
157	0x3ae47ab3	0.0017431587
158	0xbbb91ba2	-0.005649046
159	0x3c3ab6b8	0.011396103
160	0x3c30371a	0.010755325
161	0xbda98787	-0.08277803
162	0x3dca54c8	0.09879452
163	0xbd5a51a6	-0.053300522
164	0xbe141b75	-0.14463599
165	0xbd1bda14	-0.038049772
166	0xbd0f39e1	-0.034967307
167	0xbbab69f2	-0.0052311355
168	0x3db2e178	0.08734411
169	0x3d827b51	0.06371177
170	0xbd101aba	-0.03518174
171	0x3daf540a	0.08560951
172	0xbdd2442e	-0.102669105
173	0xbe12f320	-0.14350557
174	0x3d73deaa	0.05953852
175	0x3dc89bd7	0.09795349
176	0xbdf2c137	-0.11853259
177	0xbd652b77	-0.055949654
178	0xbd5c30ae	-0.053757362
179	0x3cf81e04	0.03028775
180	0xbd0708e3	-0.03296746
181	0xbe0a2476	-0.13490471
182	0x3d9eba02	0.07750322
183	0x3d867564	0.06565359
184	0x3aa93f3b	0.0012912521
185	0xbddb768e	-0.10715972
186	0x3d96ea40	0.073688984
187	0xbd54be5f	-0.051939365
188	0x3d666be7	0.056255247
189	0x3ba2cfd1	0.0049686213
190	0xbd6bb717	-0.057547655
191	0x3d0e5ab4	0.03475447
192	0xbdad767d	-0.084698655
193	0x3de6e7cf	0.11274683
194	0x3d4e52ac	0.05037181
195	0xbdbc19d7	-0.09184616
196	0x3dc3548c	0.095376104
197	0xbd88acbe	-0.06673573
198	0xbd60cb01	-0.0548811
199	0xbd202605	-0.03909876
200	0xbc859d66	-0.016310405
201	0xbceccebb	-0.02890717
202	0xbdd5efc2	-0.10446121
203	0x3dbf3279	0.09335799
204	0xbd0c54a0	-0.034260392
205	0x3d5fa1ce	0.05459767
206	0x3d3b05f0	0.04565996
207	0x3db3f53d	0.0878701
208	0xbd32efc3	-0.043685686
209	0x3d02c45f	0.031925555
210	0xbde6be01	-0.11266709
211	0xbcb0058c	-0.02148702
212	0x3dce090e	0.10060321
213	0xbc9104e8	-0.017702535
214	0x3dfbe38e	0.12299262
215	0xbdd23e26	-0.1026576
216	0xbd9f4f2e	-0.07778774
217	0xb929c659	-0.00016190986
218	0xbdd13c7a	-0.10216613
219	0xbd04692f	-0.032326873
220	0xbcb9fd7f	-0.022703884
221	0xbd109fa3	-0.03530849
222	0x3ce87682	0.028376821
223	0xbdc5884b	-0.096451364
224	0x3cb3b9e9	0.021939235
225	0xbd3ed478	-0.046589345
226	0xbd6558ac	-0.055992767
227	0x3dd7fbb3	0.10546055
228	0x3e04b814	0.12960845
229	0x3dbac9d7	0.09120529
230	0x3d03f74c	0.032218263
231	0x3cb2096b	0.021733006
232	0x3dceb6ec	0.10093483
233	0x3c8be29e	0.017075833
234	0x3dc658d7	0.096849136
235	0x3c224772	0.009904729
236	0xbdec7988	-0.11546618
237	0xbdcfe916	-0.101518795
238	0x3d1e8ccd	0.038708497
239	0x3d89f595	0.06736294
240	0xbdccdcd6	-0.100030586
241	0xbd4378ac	-0.047722504
242	0xbd6bfff4	-0.057617143
243	0x3e023ad2	0.1271775
244	0x3db89ec7	0.090146594
245	0x3dc8a137	0.09796374
246	0xbc7bac6a	-0.015360931
247	0xbcce2da5	-0.02516825
248	0x3d0db5e5	0.034597296
249	0xbd61481e	-0.055000417
250	0x3d351b5d	0.04421555
251	0xbdd6c967	-0.10487633
252	0x3dd0a5bd	0.10187862
253	0xbcd910ff	-0.026497362
254	0xbde5496d	-0.111956455
255	0xbc7897c2	-0.015172901

bias_gate.bias f4 [4]
0	0xbdad8e86	-0.0847445
1	0xbdcaf883	-0.09910681
2	0x3d4334d5	0.047657806
3	0xbd5d520b	-0.05403332

reflex_backbone.0.weight f4 [64, 2]
0	0x3e86f084	0.26355374
1	0x3f11a777	0.56896156
2	0xbf38126d	-0.71903116
3	0xbd71be00	-0.05901909
4	0x3f186a59	0.59537274
5	0x3e881590	0.2657895
6	0xbef573ce	-0.47939914
7	0xbe5e2356	-0.21693167
8	0xbdf91b8d	-0.12163458
9	0x3e877498	0.2645614
10	0x3ebbf2e8	0.3670876
11	0x3d10bff0	0.035339296
12	0xbe3a4514	-0.18190414
13	0x3f02ca37	0.51089805
14	0x3db7cd00	0.089746475
15	0x3f1cd1f5	0.6125787
16	0x3f1401e1	0.57815367
17	0x3f1e69c9	0.61880165
18	0x3eba6613	0.36406
19	0xbd533bc0	-0.051570654
20	0xbd004dd8	-0.031324238
21	0xbdffcae0	-0.12489867
22	0x3e8ea9be	0.27863878
23	0x3e867b8c	0.26266134
24	0xbebee330	-0.37282705
25	0xbf17c758	-0.5928855
26	0x3f0bc887	0.54602855
27	0xbee0771c	-0.43840873
28	0xbe19a190	-0.15003037
29	0x3e84646c	0.25857866
30	0x3eb42e0f	0.3519139
31	0xbf248e8b	-0.64280003
32	0xbd5bb3bc	-0.053638205
33	0xbe1aa1b8	-0.15100753
34	0x3e4c6e2f	0.19963907
35	0xbe80de6e	-0.251697
36	0xbebc0585	-0.3672296
37	0x3e3bf210	0.18354058
38	0xbe9655a2	-0.29362208
39	0x3e314f74	0.17315465
40	0xbeebe394	-0.46072066
41	0x3e1494dc	0.1450991
42	0xbe47e1a0	-0.19519663
43	0x3f260b15	0.6486066
44	0xbe6c3b50	-0.23069501
45	0x3f2a6a8d	0.66568834
46	0x3f09d44b	0.5383956
47	0xbe62389e	-0.2209191
48	0xbec1ac87	-0.3782694
49	0x3f08501d	0.53247243
50	0xbe9189a8	-0.28425336
51	0xbf0a652e	-0.5406064
52	0x3ec3c82a	0.3823865
53	0xbe632c04	-0.2218476
54	0x3e029492	0.12751988
55	0x3f0a7e1b	0.5409867
56	0xbf09471a	-0.5362412
57	0x3f0a25b7	0.539638
58	0xbf350108	-0.707047
59	0x3e587a98	0.21140516
60	0xbefe7f24	-0.49706376
61	0x3ee31cb6	0.44357842
62	0xbf075a41	-0.5287209
63	0x3f1f42d3	0.6221134
64	0xbeca16c5	-0.39470497
65	0x3e848d9c	0.2588929
66	0x3f284173	0.6572487
67	0x3f2e2e21	0.6803914
68	0xbe442e54	-0.19158298
69	0xbd497d10	-0.049191535
70	0xbee22433	-0.44168243
71	0x3e67d8a4	0.22641236
72	0xbe9539b9	-0.291456
73	0xbf2eb937	-0.68251365
74	0x3e9e24ab	0.3088735
75	0xbe3bbc54	-0.1833356
76	0xbf0b47dd	-0.5440653
77	0xbf1f1898	-0.621469
78	0x3eccae0c	0.39976537
79	0xbebee1bb	-0.37281594
80	0xbe3287c8	-0.17434609
81	0x3f31c3d9	0.69439465
82	0x3e65a0e7	0.2242466
83	0xbcffafa0	-0.031211674
84	0xbd317aa0	-0.043329835
85	0x3df23da8	0.11828166
86	0x3e5798c2	0.21054366
87	0x3e83ef06	0.25768298
88	0x3e10c524	0.14137703
89	0xbea77c8f	-0.32712218
90	0x3f3b8375	0.7324746
91	0x3e2e62a4	0.17029816
92	0x3f04ad9b	0.518274
93	0xbe4fc4c4	-0.20289904
94	0xbe7d9927	-0.24765454
95	0xbeed92fe	-0.4640121
96	0xbf08429f	-0.53226656
97	0xbe160de8	-0.14653742
98	0x3ee2c619	0.44291762
99	0x3f203151	0.6257525
100	0xbf116e2d	-0.5680874
101	0x3e59d3b8	0.2127217
102	0x3d942f20	0.07235551
103	0x3ec20a22	0.37898356
104	0xbf2c9e28	-0.6742883
105	0x3d415e30	0.047208965
106	0x3e82529c	0.2545365
107	0x3e9d475e	0.3071851
108	0xbe89f70e	-0.269463
109	0x3f057151	0.5212603
110	0x3eff6a5b	0.4988583
111	0xbf23b1de	-0.6394328
112	0x3f12c167	0.5732636
113	0x3db1a850	0.08674681
114	0x3e8b2528	0.27176785
115	0xbe58eba2	-0.21183637
116	0xbebf09fd	-0.37312308
117	0x3eb38cd2	0.35068375
118	0xbee8f6db	-0.45500836
119	0x3ed73202	0.4203034
120	0x3d9377ed	0.072006084
121	0x3f21b25f	0.631628
122	0x3e428f40	0.18999958
123	0xbf1f19dc	-0.62148833
124	0x3ef4e6ac	0.4783224
125	0x3f246109	0.64210564
126	0xbe91b8cf	-0.2846131
127	0x3ed8735e	0.42275518

reflex_backbone.0.bias f4 [64]
0	0x3e9f178d	0.31072655
1	0x3f20873e	0.62706363
2	0xbf267b80	-0.65032196
3	0x3efcc0b6	0.49365777
4	0x3f064b09	0.52458245
5	0xbe4b1bfa	-0.19834891
6	0xbef07cba	-0.4697016
7	0xbf0ab008	-0.5417485
8	0xbf30e2f1	-0.69096285
9	0x3e225ce4	0.15855747
10	0x3ec32a80	0.38118362
11	0xbeb4c0fd	-0.35303488
12	0xbd8400d8	-0.064454734
13	0xbe972df8	-0.2952726
14	0xbf04da0d	-0.5189522
15	0xbe246da9	-0.16057457
16	0x3f0fbaab	0.5614421
17	0x3ea2cdf9	0.3179777
18	0xbcf448e0	-0.029819906
19	0x3d8bafe3	0.06820657
20	0xbea1d86d	-0.31610432
21	0xbc356800	-0.011072159
22	0x3eb49cec	0.35275972
23	0xbf1da5f4	-0.6158135
24	0xbd05d7d0	-0.032676518
25	0x3dbacdd3	0.09121289
26	0xbe76c200	-0.24097443
27	0x3df6dfbc	0.12054393
28	0xbe353c30	-0.17698741
29	0x3f189519	0.59602505
30	0xbed6b0d3	-0.4193178
31	0x3ec72ada	0.3889988
32	0xbed07d07	-0.40720388
33	0x3f084784	0.53234124
34	0xbd54bfc0	-0.05194068
35	0x3dcc2b6e	0.09969221
36	0x3e8200f7	0.2539136
37	0x3e9f4881	0.31110004
38	0xbe7c0762	-0.24612191
39	0x3e9f1c54	0.310763
40	0xbe68d7cc	-0.2273857
41	0x3edfde77	0.43724415
42	0xbebf43ff	-0.37356564
43	0x3f10d26f	0.56571096
44	0xbf0b22e5	-0.5435012
45	0xbae651e0	-0.0017572008
46	0xbeba731f	-0.36415955
47	0x3ebaad94	0.36460555
48	0x3e82eea5	0.25572696
49	0x3f05ae34	0.5221894
50	0x3f3e10bb	0.7424428
51	0xbea34ed6	-0.31896085
52	0x3e852786	0.26006716
53	0xbe998efb	-0.29991898
54	0xbf34dae9	-0.7064653
55	0x3e961891	0.29315618
56	0xbf2c32f4	-0.6726525
57	0xbe9c4042	-0.30517775
58	0xbe55ba38	-0.20871818
59	0x3f037de2	0.51363957
60	0x3ee40f0f	0.4454274
61	0xbed433d8	-0.41445804
62	0xb8a5512c	-7.8829326e-05
63	0x3ec512a3	0.3849078

policy_head.weight f4 [2, 64]
0	0x3e8f93b7	0.28042385
1	0xbd0336e2	-0.032034762
2	0x3eb1f62b	0.34758124
3	0xbf5b45e9	-0.8565355
4	0xbce19e50	-0.02754131
5	0x3f354d45	0.7082103
6	0x3f048a28	0.5177331
7	0x3f7cf4d1	0.9881106
8	0x3c0ba7db	0.008523907
9	0xbf1d48ea	-0.61439383
10	0xbe0fc5a7	-0.14040242
11	0x3f11f443	0.5701334
12	0xbf59167b	-0.8479993
13	0x3e4ce56d	0.20009394
14	0xc0615ea6	-3.521402
15	0xbf96a72b	-1.1769766
16	0xbea3a800	-0.3196411
17	0xbf9c2e40	-1.2201614
18	0x3feae8d8	1.8352308
19	0xbf2a1194	-0.6643307
20	0xbc97611d	-0.018478924
21	0xbe4f97d3	-0.2027276
22	0x3f33e143	0.702656
23	0x3f0f8d2b	0.5607478
24	0xbf4a377a	-0.789909
25	0x3e94273e	0.2893619
26	0xbf9b0ab7	-1.2112645
27	0xc00c807c	-2.195342
28	0xbf9e8f6b	-1.2387518
29	0xbef1b83b	-0.4721087
30	0x3f0dd6fa	0.55406153
31	0xbfeaf296	-1.8355281
32	0xbfca1eb2	-1.5790617
33	0x3f538869	0.8263002
34	0x3c66df17	0.014091275
35	0x3e59da80	0.21274757
36	0x3f6e501a	0.93090975
37	0x3f393a6e	0.7235478
38	0x3ed3afb8	0.41345
39	0xbefaa367	-0.4895279
40	0x3ece08e5	0.4024116
41	0x3f46af1e	0.7761096
42	0xbf9f2267	-1.2432374
43	0x400bd655	2.1849568
44	0x3f63d6b9	0.88999516
45	0x3fcea53c	1.6144176
46	0x3f7cbfa1	0.987299
47	0x3fafbd26	1.3729599
48	0x3e9cf752	0.3065744
49	0xbfa57ac4	-1.292809
50	0xbf104dea	-0.5636889
51	0x3caed035	0.021339515
52	0xbf094333	-0.5361816
53	0x3f6063a8	0.87652063
54	0xbf6b3142	-0.91872036
55	0xbe92b701	-0.28655246
56	0xbf47a041	-0.77978903
57	0xbeb0efea	-0.3455804
58	0x3faf5b32	1.3699706
59	0xbfc0ca54	-1.5061746
60	0xbf17b1f7	-0.5925593
61	0x3f956cdb	1.1673845
62	0x3e71c689	0.23610891
63	0xbfee2749	-1.8605739
64	0x3efe8ef7	0.4971845
65	0xc02f74ea	-2.7415109
66	0xbfc947b0	-1.5725002
67	0x3ee22cae	0.44174713
68	0xbfc32884	-1.5246739
69	0xbf12b278	-0.5730357
70	0x3e9293bd	0.2862834
71	0x3f9c1a5f	1.2195548
72	0xbf1132ef	-0.56718343
73	0xbf563b8f	-0.8368463
74	0xbfeddad2	-1.8582404
75	0x3f4c3032	0.7976104
76	0xbe5af0a1	-0.21380855
77	0x3ed433ec	0.41445863
78	0xbf33f6d7	-0.7029852
79	0xbf068070	-0.5253973
80	0xbffe89f4	-1.988585
81	0x3f7cd918	0.9876876
82	0xbf9d41fa	-1.228576
83	0x3e5d6a2d	0.21622534
84	0xbf8844e8	-1.0646029
85	0xbf4c7a2c	-0.7987392
86	0xbf1563f9	-0.5835567
87	0x3fa8453c	1.3146129
88	0xbed1a6b8	-0.4094751
89	0xbf8d7747	-1.1052026
90	0x3f29d771	0.6634436
91	0x3e970382	0.29494864
92	0xbf8e5baa	-1.1121724
93	0xbf544c14	-0.82928586
94	0x3f0bdac6	0.54630697
95	0xbe81ca15	-0.2534949
96	0xbf90d534	-1.1315064
97	0x3fb82549	1.4386379
98	0xbee0869b	-0.43852696
99	0x3fbe30ac	1.4858603
100	0x3fe67d50	1.8006992
101	0xbf302ab9	-0.6881519
102	0x3ec6dbc4	0.38839543
103	0xc0253619	-2.5814269
104	0x3f1741eb	0.5908496
105	0xbf34b3ab	-0.7058665
106	0xbda153e7	-0.07877331
107	0xbf796284	-0.9741595
108	0x3f411930	0.7542906
109	0x3f2171eb	0.6306445
110	0x3e124a86	0.14286241
111	0x3b69e4a4	0.003568926
112	0xbf9d3950	-1.2283115
113	0x3ea01401	0.31265262
114	0x3ea43b41	0.32076457
115	0x3ea48c58	0.32138324
116	0xbf970ecc	-1.1801391
117	0xbdf6d314	-0.12051979
118	0x3f641129	0.89088684
119	0x3f00d173	0.50319594
120	0xbe1fbe4f	-0.1559994
121	0x3f107535	0.56428844
122	0xbf042256	-0.5161489
123	0x3f4880d4	0.78321576
124	0xbfa1cea9	-1.2641193
125	0xbf041825	-0.5159934
126	0x3f0164d3	0.5054447
127	0xbe984405	-0.29739395

policy_head.bias f4 [2]
0	0xbdf2db3b	-0.11858221
1	0xbe30b0af	-0.172549

motor_head.weight f4 [2, 64]
0	0x3d9a7b81	0.07543088
1	0xbe1165bc	-0.14198965
2	0xbdd11980	-0.10209942
3	0xbb8e329e	-0.00433953
4	0x3dce978e	0.100875005
5	0x3d8cb078	0.06869596
6	0x3df90ce8	0.12160665
7	0x3dbd95f4	0.09257117
8	0x3debae10	0.11507809
9	0xbdb03249	-0.08603341
10	0xbdfe3df9	-0.12414164
11	0xbd3b34ac	-0.04570453
12	0xbdfaf72c	-0.122541755
13	0xbd2bfde4	-0.041990176
14	0x3d870a68	0.06593782
15	0x3baa83e8	0.0052037127
16	0xbce4e722	-0.027942244
17	0xbd888bdb	-0.066673
18	0xbbc87400	-0.006117344
19	0xbde12722	-0.10993792
20	0xbd9c6cf0	-0.07637966
21	0xbc87ea98	-0.016591355
22	0x3ce7149a	0.028208066
23	0x3d4f1130	0.0505535
24	0x3dbaed18	0.09127253
25	0x3d1d9a78	0.03847739
26	0xbdec7bee	-0.11547075
27	0xbdd89c53	-0.105766915
28	0x3db9294c	0.0904108
29	0xbdabe667	-0.08393555
30	0x3d632754	0.055457428
31	0x3d42e7d5	0.047584374
32	0xbd02e250	-0.03195411
33	0x3d45344f	0.04814559
34	0xbd0986d0	-0.033575833
35	0xbd0ff5d7	-0.03514656
36	0x3d363506	0.04448416
37	0x3c82fe62	0.01599044
38	0xbd67360c	-0.056448027
39	0x3d1da67d	0.038488854
40	0x3d025f1c	0.031828985
41	0xbdad307e	-0.08456515
42	0x3cd8e160	0.026474655
43	0xbe0a9f90	-0.13537431
44	0x3d89482c	0.06703219
45	0x3ceb0d2a	0.0286928
46	0x3d947834	0.072494894
47	0x3c414d59	0.011798226
48	0xbd7b7c92	-0.061398096
49	0xbdfa6f21	-0.122282274
50	0xbd9b108d	-0.07571516
51	0xbdcc2d92	-0.09969629
52	0x3d08e6c9	0.03342322
53	0xbc82c9a8	-0.015965298
54	0x3df9e134	0.12201157
55	0xbd4809e9	-0.048837576
56	0xbdccb812	-0.09996046
57	0xbd1c8b1c	-0.038218603
58	0xbda4ae0a	-0.08041008
59	0x3bfbfcf0	0.0076900646
60	0xbe06de06	-0.13170633
61	0x3d842e26	0.064541146
62	0x3d852ff4	0.06503287
63	0xbcc52add	-0.02406829
64	0xbd4c9737	-0.049948897
65	0x3ced9c7a	0.029005278
66	0x3db9fec6	0.09081797
67	0xbd1a55c2	-0.03767944
68	0x3d98be41	0.07458163
69	0x3ba2634a	0.004955684
70	0xbcf76ab0	-0.03020224
71	0x3cd5f870	0.02611944
72	0x3dfe2068	0.12408525
73	0xbd1fe54b	-0.03903703
74	0xbd836838	-0.064163625
75	0xbcd39f50	-0.025832802
76	0x3df292ce	0.11844407
77	0x3dd99622	0.10624339
78	0xbde7594a	-0.112963274
79	0x3cceca99	0.02524309
80	0x3b9c3ba9	0.004767854
81	0x3cbfdf2e	0.02342185
82	0x3cc9ca28	0.024632528
83	0x3dc5d395	0.09659497
84	0x3daf5e1c	0.08562872
85	0x3da09674	0.07841197
86	0xbd90c723	-0.07069232
87	0xbdce0182	-0.10058881
88	0xbdfd0c30	-0.1235584
89	0x3c71e582	0.014764192
90	0x3df46cd6	0.11934821
91	0x3a88e2d8	0.0010443581
92	0xbdc52a62	-0.096272245
93	0x3c520799	0.012819194
94	0xbdf19974	-0.11796847
95	0x3d341626	0.043966435
96	0x3d1a0e50	0.037611306
97	0x3d2262a3	0.03964485
98	0x3dca2dae	0.09871994
99	0x3e000453	0.1250165
100	0xbdb9c582	-0.09070875
101	0xbd877d27	-0.06615668
102	0xbd3fedd4	-0.04685767
103	0x3c01780c	0.007902157
104	0x3cd91098	0.02649717
105	0xbcdfc69b	-0.027316382
106	0x3d9e10ec	0.07718071
107	0xbc087161	-0.008327813
108	0xbd7a1fa0	-0.061065316
109	0x3dd6db60	0.10491061
110	0xbd94eaf8	-0.07271379
111	0x3ceeb8ce	0.029140856
112	0x3cff42cc	0.03115978
113	0xbda6a9a7	-0.08137827
114	0x3cc389e3	0.02386946
115	0xbdf9ca52	-0.12196793
116	0xbd5b40a8	-0.053528458
117	0x3de7e402	0.11322786
118	0x3d6a0144	0.057130113
119	0x3d1981da	0.03747735
120	0x3dd62696	0.104565784
121	0xbd1cfafc	-0.038325295
122	0x3dc07768	0.09397775
123	0xbd8c84f8	-0.06861299
124	0x3c604ec8	0.013690658
125	0x3dd4dea2	0.10394026
126	0x3cf9cd89	0.030493515
127	0x3c9f5f34	0.019454576

motor_head.bias f4 [2]
0	0x3d907419	0.07053394
1	0x3d73b443	0.059498083
